{
  "nodes": [
    {
      "op": "null", 
      "name": "data", 
      "inputs": []
    }, 
    {
      "op": "null", 
      "name": "conv-0_weight", 
      "attr": {
        "kernel": "(3, 3)", 
        "num_filter": "72", 
        "pad": "(1, 1)"
      }, 
      "inputs": []
    }, 
    {
      "op": "null", 
      "name": "conv-0_bias", 
      "attr": {
        "kernel": "(3, 3)", 
        "num_filter": "72", 
        "pad": "(1, 1)"
      }, 
      "inputs": []
    }, 
    {
      "op": "Convolution", 
      "name": "conv-0", 
      "attr": {
        "kernel": "(3, 3)", 
        "num_filter": "72", 
        "pad": "(1, 1)"
      }, 
      "inputs": [[0, 0, 0], [1, 0, 0], [2, 0, 0]]
    }, 
    {
      "op": "LeakyReLU", 
      "name": "leakyrelu-0", 
      "inputs": [[3, 0, 0]]
    }, 
    {
      "op": "Pooling", 
      "name": "pool-0_m", 
      "attr": {
        "kernel": "(2, 2)", 
        "pool_type": "max", 
        "stride": "(2, 2)"
      }, 
      "inputs": [[4, 0, 0]]
    }, 
    {
      "op": "Pooling", 
      "name": "pool-0_a", 
      "attr": {
        "kernel": "(2, 2)", 
        "pool_type": "avg", 
        "stride": "(2, 2)"
      }, 
      "inputs": [[4, 0, 0]]
    }, 
    {
      "op": "_sub", 
      "name": "_minus0", 
      "inputs": [[5, 0, 0], [6, 0, 0]]
    }, 
    {
      "op": "null", 
      "name": "conv-1_weight", 
      "attr": {
        "kernel": "(3, 3)", 
        "num_filter": "72", 
        "pad": "(1, 1)"
      }, 
      "inputs": []
    }, 
    {
      "op": "null", 
      "name": "conv-1_bias", 
      "attr": {
        "kernel": "(3, 3)", 
        "num_filter": "72", 
        "pad": "(1, 1)"
      }, 
      "inputs": []
    }, 
    {
      "op": "Convolution", 
      "name": "conv-1", 
      "attr": {
        "kernel": "(3, 3)", 
        "num_filter": "72", 
        "pad": "(1, 1)"
      }, 
      "inputs": [[7, 0, 0], [8, 0, 0], [9, 0, 0]]
    }, 
    {
      "op": "LeakyReLU", 
      "name": "leakyrelu-1", 
      "inputs": [[10, 0, 0]]
    }, 
    {
      "op": "Pooling", 
      "name": "pool-1", 
      "attr": {
        "kernel": "(2, 2)", 
        "pool_type": "max", 
        "stride": "(2, 2)"
      }, 
      "inputs": [[11, 0, 0]]
    }, 
    {
      "op": "null", 
      "name": "conv-2_weight", 
      "attr": {
        "kernel": "(3, 3)", 
        "num_filter": "72", 
        "pad": "(1, 1)"
      }, 
      "inputs": []
    }, 
    {
      "op": "null", 
      "name": "conv-2_bias", 
      "attr": {
        "kernel": "(3, 3)", 
        "num_filter": "72", 
        "pad": "(1, 1)"
      }, 
      "inputs": []
    }, 
    {
      "op": "Convolution", 
      "name": "conv-2", 
      "attr": {
        "kernel": "(3, 3)", 
        "num_filter": "72", 
        "pad": "(1, 1)"
      }, 
      "inputs": [[12, 0, 0], [13, 0, 0], [14, 0, 0]]
    }, 
    {
      "op": "null", 
      "name": "batchnorm-2_gamma", 
      "inputs": []
    }, 
    {
      "op": "null", 
      "name": "batchnorm-2_beta", 
      "inputs": []
    }, 
    {
      "op": "null", 
      "name": "batchnorm-2_moving_mean", 
      "attr": {"__init__": "[\"zero\", {}]"}, 
      "inputs": []
    }, 
    {
      "op": "null", 
      "name": "batchnorm-2_moving_var", 
      "attr": {"__init__": "[\"one\", {}]"}, 
      "inputs": []
    }, 
    {
      "op": "BatchNorm", 
      "name": "batchnorm-2", 
      "inputs": [[15, 0, 0], [16, 0, 0], [17, 0, 0], [18, 0, 1], [19, 0, 1]]
    }, 
    {
      "op": "LeakyReLU", 
      "name": "leakyrelu-2", 
      "inputs": [[20, 0, 0]]
    }, 
    {
      "op": "null", 
      "name": "conv-3_weight", 
      "attr": {
        "kernel": "(3, 3)", 
        "num_filter": "72", 
        "pad": "(1, 1)"
      }, 
      "inputs": []
    }, 
    {
      "op": "null", 
      "name": "conv-3_bias", 
      "attr": {
        "kernel": "(3, 3)", 
        "num_filter": "72", 
        "pad": "(1, 1)"
      }, 
      "inputs": []
    }, 
    {
      "op": "Convolution", 
      "name": "conv-3", 
      "attr": {
        "kernel": "(3, 3)", 
        "num_filter": "72", 
        "pad": "(1, 1)"
      }, 
      "inputs": [[21, 0, 0], [22, 0, 0], [23, 0, 0]]
    }, 
    {
      "op": "LeakyReLU", 
      "name": "leakyrelu-3", 
      "inputs": [[24, 0, 0]]
    }, 
    {
      "op": "Pooling", 
      "name": "pool-2", 
      "attr": {
        "kernel": "(2, 2)", 
        "pool_type": "max", 
        "stride": "(2, 2)"
      }, 
      "inputs": [[25, 0, 0]]
    }, 
    {
      "op": "null", 
      "name": "conv-4_weight", 
      "attr": {
        "kernel": "(3, 3)", 
        "num_filter": "72", 
        "pad": "(1, 1)"
      }, 
      "inputs": []
    }, 
    {
      "op": "null", 
      "name": "conv-4_bias", 
      "attr": {
        "kernel": "(3, 3)", 
        "num_filter": "72", 
        "pad": "(1, 1)"
      }, 
      "inputs": []
    }, 
    {
      "op": "Convolution", 
      "name": "conv-4", 
      "attr": {
        "kernel": "(3, 3)", 
        "num_filter": "72", 
        "pad": "(1, 1)"
      }, 
      "inputs": [[26, 0, 0], [27, 0, 0], [28, 0, 0]]
    }, 
    {
      "op": "null", 
      "name": "batchnorm-4_gamma", 
      "inputs": []
    }, 
    {
      "op": "null", 
      "name": "batchnorm-4_beta", 
      "inputs": []
    }, 
    {
      "op": "null", 
      "name": "batchnorm-4_moving_mean", 
      "attr": {"__init__": "[\"zero\", {}]"}, 
      "inputs": []
    }, 
    {
      "op": "null", 
      "name": "batchnorm-4_moving_var", 
      "attr": {"__init__": "[\"one\", {}]"}, 
      "inputs": []
    }, 
    {
      "op": "BatchNorm", 
      "name": "batchnorm-4", 
      "inputs": [[29, 0, 0], [30, 0, 0], [31, 0, 0], [32, 0, 1], [33, 0, 1]]
    }, 
    {
      "op": "LeakyReLU", 
      "name": "leakyrelu-4", 
      "inputs": [[34, 0, 0]]
    }, 
    {
      "op": "null", 
      "name": "conv-5_weight", 
      "attr": {
        "kernel": "(3, 3)", 
        "num_filter": "72", 
        "pad": "(1, 1)"
      }, 
      "inputs": []
    }, 
    {
      "op": "null", 
      "name": "conv-5_bias", 
      "attr": {
        "kernel": "(3, 3)", 
        "num_filter": "72", 
        "pad": "(1, 1)"
      }, 
      "inputs": []
    }, 
    {
      "op": "Convolution", 
      "name": "conv-5", 
      "attr": {
        "kernel": "(3, 3)", 
        "num_filter": "72", 
        "pad": "(1, 1)"
      }, 
      "inputs": [[35, 0, 0], [36, 0, 0], [37, 0, 0]]
    }, 
    {
      "op": "LeakyReLU", 
      "name": "leakyrelu-5", 
      "inputs": [[38, 0, 0]]
    }, 
    {
      "op": "Dropout", 
      "name": "dropout0", 
      "attr": {"p": "0.3"}, 
      "inputs": [[39, 0, 0]]
    }, 
    {
      "op": "SliceChannel", 
      "name": "split0", 
      "attr": {
        "axis": "3", 
        "num_outputs": "32", 
        "squeeze_axis": "1"
      }, 
      "inputs": [[40, 0, 0]]
    }, 
    {
      "op": "Flatten", 
      "name": "flatten0", 
      "inputs": [[41, 0, 0]]
    }, 
    {
      "op": "null", 
      "name": "l0_i2h_weight", 
      "inputs": []
    }, 
    {
      "op": "null", 
      "name": "l0_i2h_bias", 
      "inputs": []
    }, 
    {
      "op": "FullyConnected", 
      "name": "t0_l0_i2h", 
      "attr": {"num_hidden": "512"}, 
      "inputs": [[42, 0, 0], [43, 0, 0], [44, 0, 0]]
    }, 
    {
      "op": "null", 
      "name": "l0_init_h", 
      "inputs": []
    }, 
    {
      "op": "null", 
      "name": "l0_h2h_weight", 
      "inputs": []
    }, 
    {
      "op": "null", 
      "name": "l0_h2h_bias", 
      "inputs": []
    }, 
    {
      "op": "FullyConnected", 
      "name": "t0_l0_h2h", 
      "attr": {"num_hidden": "512"}, 
      "inputs": [[46, 0, 0], [47, 0, 0], [48, 0, 0]]
    }, 
    {
      "op": "elemwise_add", 
      "name": "_plus0", 
      "inputs": [[45, 0, 0], [49, 0, 0]]
    }, 
    {
      "op": "SliceChannel", 
      "name": "t0_l0_slice", 
      "attr": {"num_outputs": "4"}, 
      "inputs": [[50, 0, 0]]
    }, 
    {
      "op": "Activation", 
      "name": "activation3", 
      "attr": {"act_type": "sigmoid"}, 
      "inputs": [[51, 3, 0]]
    }, 
    {
      "op": "Activation", 
      "name": "activation2", 
      "attr": {"act_type": "sigmoid"}, 
      "inputs": [[51, 2, 0]]
    }, 
    {
      "op": "null", 
      "name": "l0_init_c", 
      "inputs": []
    }, 
    {
      "op": "_mul", 
      "name": "_mul0", 
      "inputs": [[53, 0, 0], [54, 0, 0]]
    }, 
    {
      "op": "Activation", 
      "name": "activation0", 
      "attr": {"act_type": "sigmoid"}, 
      "inputs": [[51, 0, 0]]
    }, 
    {
      "op": "Activation", 
      "name": "activation1", 
      "attr": {"act_type": "tanh"}, 
      "inputs": [[51, 1, 0]]
    }, 
    {
      "op": "_mul", 
      "name": "_mul1", 
      "inputs": [[56, 0, 0], [57, 0, 0]]
    }, 
    {
      "op": "elemwise_add", 
      "name": "_plus1", 
      "inputs": [[55, 0, 0], [58, 0, 0]]
    }, 
    {
      "op": "Activation", 
      "name": "activation4", 
      "attr": {"act_type": "tanh"}, 
      "inputs": [[59, 0, 0]]
    }, 
    {
      "op": "_mul", 
      "name": "_mul2", 
      "inputs": [[52, 0, 0], [60, 0, 0]]
    }, 
    {
      "op": "null", 
      "name": "l2_i2h_weight", 
      "inputs": []
    }, 
    {
      "op": "null", 
      "name": "l2_i2h_bias", 
      "inputs": []
    }, 
    {
      "op": "FullyConnected", 
      "name": "t0_l0_i2h", 
      "attr": {"num_hidden": "512"}, 
      "inputs": [[61, 0, 0], [62, 0, 0], [63, 0, 0]]
    }, 
    {
      "op": "null", 
      "name": "l2_init_h", 
      "inputs": []
    }, 
    {
      "op": "null", 
      "name": "l2_h2h_weight", 
      "inputs": []
    }, 
    {
      "op": "null", 
      "name": "l2_h2h_bias", 
      "inputs": []
    }, 
    {
      "op": "FullyConnected", 
      "name": "t0_l0_h2h", 
      "attr": {"num_hidden": "512"}, 
      "inputs": [[65, 0, 0], [66, 0, 0], [67, 0, 0]]
    }, 
    {
      "op": "elemwise_add", 
      "name": "_plus2", 
      "inputs": [[64, 0, 0], [68, 0, 0]]
    }, 
    {
      "op": "SliceChannel", 
      "name": "t0_l0_slice", 
      "attr": {"num_outputs": "4"}, 
      "inputs": [[69, 0, 0]]
    }, 
    {
      "op": "Activation", 
      "name": "activation8", 
      "attr": {"act_type": "sigmoid"}, 
      "inputs": [[70, 3, 0]]
    }, 
    {
      "op": "Activation", 
      "name": "activation7", 
      "attr": {"act_type": "sigmoid"}, 
      "inputs": [[70, 2, 0]]
    }, 
    {
      "op": "null", 
      "name": "l2_init_c", 
      "inputs": []
    }, 
    {
      "op": "_mul", 
      "name": "_mul3", 
      "inputs": [[72, 0, 0], [73, 0, 0]]
    }, 
    {
      "op": "Activation", 
      "name": "activation5", 
      "attr": {"act_type": "sigmoid"}, 
      "inputs": [[70, 0, 0]]
    }, 
    {
      "op": "Activation", 
      "name": "activation6", 
      "attr": {"act_type": "tanh"}, 
      "inputs": [[70, 1, 0]]
    }, 
    {
      "op": "_mul", 
      "name": "_mul4", 
      "inputs": [[75, 0, 0], [76, 0, 0]]
    }, 
    {
      "op": "elemwise_add", 
      "name": "_plus3", 
      "inputs": [[74, 0, 0], [77, 0, 0]]
    }, 
    {
      "op": "Activation", 
      "name": "activation9", 
      "attr": {"act_type": "tanh"}, 
      "inputs": [[78, 0, 0]]
    }, 
    {
      "op": "_mul", 
      "name": "_mul5", 
      "inputs": [[71, 0, 0], [79, 0, 0]]
    }, 
    {
      "op": "Flatten", 
      "name": "flatten63", 
      "inputs": [[41, 0, 0]]
    }, 
    {
      "op": "null", 
      "name": "l1_i2h_weight", 
      "inputs": []
    }, 
    {
      "op": "null", 
      "name": "l1_i2h_bias", 
      "inputs": []
    }, 
    {
      "op": "FullyConnected", 
      "name": "t0_l1_i2h", 
      "attr": {"num_hidden": "512"}, 
      "inputs": [[81, 0, 0], [82, 0, 0], [83, 0, 0]]
    }, 
    {
      "op": "Flatten", 
      "name": "flatten62", 
      "inputs": [[41, 1, 0]]
    }, 
    {
      "op": "FullyConnected", 
      "name": "t1_l1_i2h", 
      "attr": {"num_hidden": "512"}, 
      "inputs": [[85, 0, 0], [82, 0, 0], [83, 0, 0]]
    }, 
    {
      "op": "Flatten", 
      "name": "flatten61", 
      "inputs": [[41, 2, 0]]
    }, 
    {
      "op": "FullyConnected", 
      "name": "t2_l1_i2h", 
      "attr": {"num_hidden": "512"}, 
      "inputs": [[87, 0, 0], [82, 0, 0], [83, 0, 0]]
    }, 
    {
      "op": "Flatten", 
      "name": "flatten60", 
      "inputs": [[41, 3, 0]]
    }, 
    {
      "op": "FullyConnected", 
      "name": "t3_l1_i2h", 
      "attr": {"num_hidden": "512"}, 
      "inputs": [[89, 0, 0], [82, 0, 0], [83, 0, 0]]
    }, 
    {
      "op": "Flatten", 
      "name": "flatten59", 
      "inputs": [[41, 4, 0]]
    }, 
    {
      "op": "FullyConnected", 
      "name": "t4_l1_i2h", 
      "attr": {"num_hidden": "512"}, 
      "inputs": [[91, 0, 0], [82, 0, 0], [83, 0, 0]]
    }, 
    {
      "op": "Flatten", 
      "name": "flatten58", 
      "inputs": [[41, 5, 0]]
    }, 
    {
      "op": "FullyConnected", 
      "name": "t5_l1_i2h", 
      "attr": {"num_hidden": "512"}, 
      "inputs": [[93, 0, 0], [82, 0, 0], [83, 0, 0]]
    }, 
    {
      "op": "Flatten", 
      "name": "flatten57", 
      "inputs": [[41, 6, 0]]
    }, 
    {
      "op": "FullyConnected", 
      "name": "t6_l1_i2h", 
      "attr": {"num_hidden": "512"}, 
      "inputs": [[95, 0, 0], [82, 0, 0], [83, 0, 0]]
    }, 
    {
      "op": "Flatten", 
      "name": "flatten56", 
      "inputs": [[41, 7, 0]]
    }, 
    {
      "op": "FullyConnected", 
      "name": "t7_l1_i2h", 
      "attr": {"num_hidden": "512"}, 
      "inputs": [[97, 0, 0], [82, 0, 0], [83, 0, 0]]
    }, 
    {
      "op": "Flatten", 
      "name": "flatten55", 
      "inputs": [[41, 8, 0]]
    }, 
    {
      "op": "FullyConnected", 
      "name": "t8_l1_i2h", 
      "attr": {"num_hidden": "512"}, 
      "inputs": [[99, 0, 0], [82, 0, 0], [83, 0, 0]]
    }, 
    {
      "op": "Flatten", 
      "name": "flatten54", 
      "inputs": [[41, 9, 0]]
    }, 
    {
      "op": "FullyConnected", 
      "name": "t9_l1_i2h", 
      "attr": {"num_hidden": "512"}, 
      "inputs": [[101, 0, 0], [82, 0, 0], [83, 0, 0]]
    }, 
    {
      "op": "Flatten", 
      "name": "flatten53", 
      "inputs": [[41, 10, 0]]
    }, 
    {
      "op": "FullyConnected", 
      "name": "t10_l1_i2h", 
      "attr": {"num_hidden": "512"}, 
      "inputs": [[103, 0, 0], [82, 0, 0], [83, 0, 0]]
    }, 
    {
      "op": "Flatten", 
      "name": "flatten52", 
      "inputs": [[41, 11, 0]]
    }, 
    {
      "op": "FullyConnected", 
      "name": "t11_l1_i2h", 
      "attr": {"num_hidden": "512"}, 
      "inputs": [[105, 0, 0], [82, 0, 0], [83, 0, 0]]
    }, 
    {
      "op": "Flatten", 
      "name": "flatten51", 
      "inputs": [[41, 12, 0]]
    }, 
    {
      "op": "FullyConnected", 
      "name": "t12_l1_i2h", 
      "attr": {"num_hidden": "512"}, 
      "inputs": [[107, 0, 0], [82, 0, 0], [83, 0, 0]]
    }, 
    {
      "op": "Flatten", 
      "name": "flatten50", 
      "inputs": [[41, 13, 0]]
    }, 
    {
      "op": "FullyConnected", 
      "name": "t13_l1_i2h", 
      "attr": {"num_hidden": "512"}, 
      "inputs": [[109, 0, 0], [82, 0, 0], [83, 0, 0]]
    }, 
    {
      "op": "Flatten", 
      "name": "flatten49", 
      "inputs": [[41, 14, 0]]
    }, 
    {
      "op": "FullyConnected", 
      "name": "t14_l1_i2h", 
      "attr": {"num_hidden": "512"}, 
      "inputs": [[111, 0, 0], [82, 0, 0], [83, 0, 0]]
    }, 
    {
      "op": "Flatten", 
      "name": "flatten48", 
      "inputs": [[41, 15, 0]]
    }, 
    {
      "op": "FullyConnected", 
      "name": "t15_l1_i2h", 
      "attr": {"num_hidden": "512"}, 
      "inputs": [[113, 0, 0], [82, 0, 0], [83, 0, 0]]
    }, 
    {
      "op": "Flatten", 
      "name": "flatten47", 
      "inputs": [[41, 16, 0]]
    }, 
    {
      "op": "FullyConnected", 
      "name": "t16_l1_i2h", 
      "attr": {"num_hidden": "512"}, 
      "inputs": [[115, 0, 0], [82, 0, 0], [83, 0, 0]]
    }, 
    {
      "op": "Flatten", 
      "name": "flatten46", 
      "inputs": [[41, 17, 0]]
    }, 
    {
      "op": "FullyConnected", 
      "name": "t17_l1_i2h", 
      "attr": {"num_hidden": "512"}, 
      "inputs": [[117, 0, 0], [82, 0, 0], [83, 0, 0]]
    }, 
    {
      "op": "Flatten", 
      "name": "flatten45", 
      "inputs": [[41, 18, 0]]
    }, 
    {
      "op": "FullyConnected", 
      "name": "t18_l1_i2h", 
      "attr": {"num_hidden": "512"}, 
      "inputs": [[119, 0, 0], [82, 0, 0], [83, 0, 0]]
    }, 
    {
      "op": "Flatten", 
      "name": "flatten44", 
      "inputs": [[41, 19, 0]]
    }, 
    {
      "op": "FullyConnected", 
      "name": "t19_l1_i2h", 
      "attr": {"num_hidden": "512"}, 
      "inputs": [[121, 0, 0], [82, 0, 0], [83, 0, 0]]
    }, 
    {
      "op": "Flatten", 
      "name": "flatten43", 
      "inputs": [[41, 20, 0]]
    }, 
    {
      "op": "FullyConnected", 
      "name": "t20_l1_i2h", 
      "attr": {"num_hidden": "512"}, 
      "inputs": [[123, 0, 0], [82, 0, 0], [83, 0, 0]]
    }, 
    {
      "op": "Flatten", 
      "name": "flatten42", 
      "inputs": [[41, 21, 0]]
    }, 
    {
      "op": "FullyConnected", 
      "name": "t21_l1_i2h", 
      "attr": {"num_hidden": "512"}, 
      "inputs": [[125, 0, 0], [82, 0, 0], [83, 0, 0]]
    }, 
    {
      "op": "Flatten", 
      "name": "flatten41", 
      "inputs": [[41, 22, 0]]
    }, 
    {
      "op": "FullyConnected", 
      "name": "t22_l1_i2h", 
      "attr": {"num_hidden": "512"}, 
      "inputs": [[127, 0, 0], [82, 0, 0], [83, 0, 0]]
    }, 
    {
      "op": "Flatten", 
      "name": "flatten40", 
      "inputs": [[41, 23, 0]]
    }, 
    {
      "op": "FullyConnected", 
      "name": "t23_l1_i2h", 
      "attr": {"num_hidden": "512"}, 
      "inputs": [[129, 0, 0], [82, 0, 0], [83, 0, 0]]
    }, 
    {
      "op": "Flatten", 
      "name": "flatten39", 
      "inputs": [[41, 24, 0]]
    }, 
    {
      "op": "FullyConnected", 
      "name": "t24_l1_i2h", 
      "attr": {"num_hidden": "512"}, 
      "inputs": [[131, 0, 0], [82, 0, 0], [83, 0, 0]]
    }, 
    {
      "op": "Flatten", 
      "name": "flatten38", 
      "inputs": [[41, 25, 0]]
    }, 
    {
      "op": "FullyConnected", 
      "name": "t25_l1_i2h", 
      "attr": {"num_hidden": "512"}, 
      "inputs": [[133, 0, 0], [82, 0, 0], [83, 0, 0]]
    }, 
    {
      "op": "Flatten", 
      "name": "flatten37", 
      "inputs": [[41, 26, 0]]
    }, 
    {
      "op": "FullyConnected", 
      "name": "t26_l1_i2h", 
      "attr": {"num_hidden": "512"}, 
      "inputs": [[135, 0, 0], [82, 0, 0], [83, 0, 0]]
    }, 
    {
      "op": "Flatten", 
      "name": "flatten36", 
      "inputs": [[41, 27, 0]]
    }, 
    {
      "op": "FullyConnected", 
      "name": "t27_l1_i2h", 
      "attr": {"num_hidden": "512"}, 
      "inputs": [[137, 0, 0], [82, 0, 0], [83, 0, 0]]
    }, 
    {
      "op": "Flatten", 
      "name": "flatten35", 
      "inputs": [[41, 28, 0]]
    }, 
    {
      "op": "FullyConnected", 
      "name": "t28_l1_i2h", 
      "attr": {"num_hidden": "512"}, 
      "inputs": [[139, 0, 0], [82, 0, 0], [83, 0, 0]]
    }, 
    {
      "op": "Flatten", 
      "name": "flatten34", 
      "inputs": [[41, 29, 0]]
    }, 
    {
      "op": "FullyConnected", 
      "name": "t29_l1_i2h", 
      "attr": {"num_hidden": "512"}, 
      "inputs": [[141, 0, 0], [82, 0, 0], [83, 0, 0]]
    }, 
    {
      "op": "Flatten", 
      "name": "flatten33", 
      "inputs": [[41, 30, 0]]
    }, 
    {
      "op": "FullyConnected", 
      "name": "t30_l1_i2h", 
      "attr": {"num_hidden": "512"}, 
      "inputs": [[143, 0, 0], [82, 0, 0], [83, 0, 0]]
    }, 
    {
      "op": "Flatten", 
      "name": "flatten32", 
      "inputs": [[41, 31, 0]]
    }, 
    {
      "op": "FullyConnected", 
      "name": "t31_l1_i2h", 
      "attr": {"num_hidden": "512"}, 
      "inputs": [[145, 0, 0], [82, 0, 0], [83, 0, 0]]
    }, 
    {
      "op": "null", 
      "name": "l1_init_h", 
      "inputs": []
    }, 
    {
      "op": "null", 
      "name": "l1_h2h_weight", 
      "inputs": []
    }, 
    {
      "op": "null", 
      "name": "l1_h2h_bias", 
      "inputs": []
    }, 
    {
      "op": "FullyConnected", 
      "name": "t31_l1_h2h", 
      "attr": {"num_hidden": "512"}, 
      "inputs": [[147, 0, 0], [148, 0, 0], [149, 0, 0]]
    }, 
    {
      "op": "elemwise_add", 
      "name": "_plus128", 
      "inputs": [[146, 0, 0], [150, 0, 0]]
    }, 
    {
      "op": "SliceChannel", 
      "name": "t31_l1_slice", 
      "attr": {"num_outputs": "4"}, 
      "inputs": [[151, 0, 0]]
    }, 
    {
      "op": "Activation", 
      "name": "activation323", 
      "attr": {"act_type": "sigmoid"}, 
      "inputs": [[152, 3, 0]]
    }, 
    {
      "op": "Activation", 
      "name": "activation322", 
      "attr": {"act_type": "sigmoid"}, 
      "inputs": [[152, 2, 0]]
    }, 
    {
      "op": "null", 
      "name": "l1_init_c", 
      "inputs": []
    }, 
    {
      "op": "_mul", 
      "name": "_mul192", 
      "inputs": [[154, 0, 0], [155, 0, 0]]
    }, 
    {
      "op": "Activation", 
      "name": "activation320", 
      "attr": {"act_type": "sigmoid"}, 
      "inputs": [[152, 0, 0]]
    }, 
    {
      "op": "Activation", 
      "name": "activation321", 
      "attr": {"act_type": "tanh"}, 
      "inputs": [[152, 1, 0]]
    }, 
    {
      "op": "_mul", 
      "name": "_mul193", 
      "inputs": [[157, 0, 0], [158, 0, 0]]
    }, 
    {
      "op": "elemwise_add", 
      "name": "_plus129", 
      "inputs": [[156, 0, 0], [159, 0, 0]]
    }, 
    {
      "op": "Activation", 
      "name": "activation324", 
      "attr": {"act_type": "tanh"}, 
      "inputs": [[160, 0, 0]]
    }, 
    {
      "op": "_mul", 
      "name": "_mul194", 
      "inputs": [[153, 0, 0], [161, 0, 0]]
    }, 
    {
      "op": "FullyConnected", 
      "name": "t30_l1_h2h", 
      "attr": {"num_hidden": "512"}, 
      "inputs": [[162, 0, 0], [148, 0, 0], [149, 0, 0]]
    }, 
    {
      "op": "elemwise_add", 
      "name": "_plus132", 
      "inputs": [[144, 0, 0], [163, 0, 0]]
    }, 
    {
      "op": "SliceChannel", 
      "name": "t30_l1_slice", 
      "attr": {"num_outputs": "4"}, 
      "inputs": [[164, 0, 0]]
    }, 
    {
      "op": "Activation", 
      "name": "activation333", 
      "attr": {"act_type": "sigmoid"}, 
      "inputs": [[165, 3, 0]]
    }, 
    {
      "op": "Activation", 
      "name": "activation332", 
      "attr": {"act_type": "sigmoid"}, 
      "inputs": [[165, 2, 0]]
    }, 
    {
      "op": "_mul", 
      "name": "_mul198", 
      "inputs": [[167, 0, 0], [160, 0, 0]]
    }, 
    {
      "op": "Activation", 
      "name": "activation330", 
      "attr": {"act_type": "sigmoid"}, 
      "inputs": [[165, 0, 0]]
    }, 
    {
      "op": "Activation", 
      "name": "activation331", 
      "attr": {"act_type": "tanh"}, 
      "inputs": [[165, 1, 0]]
    }, 
    {
      "op": "_mul", 
      "name": "_mul199", 
      "inputs": [[169, 0, 0], [170, 0, 0]]
    }, 
    {
      "op": "elemwise_add", 
      "name": "_plus133", 
      "inputs": [[168, 0, 0], [171, 0, 0]]
    }, 
    {
      "op": "Activation", 
      "name": "activation334", 
      "attr": {"act_type": "tanh"}, 
      "inputs": [[172, 0, 0]]
    }, 
    {
      "op": "_mul", 
      "name": "_mul200", 
      "inputs": [[166, 0, 0], [173, 0, 0]]
    }, 
    {
      "op": "FullyConnected", 
      "name": "t29_l1_h2h", 
      "attr": {"num_hidden": "512"}, 
      "inputs": [[174, 0, 0], [148, 0, 0], [149, 0, 0]]
    }, 
    {
      "op": "elemwise_add", 
      "name": "_plus136", 
      "inputs": [[142, 0, 0], [175, 0, 0]]
    }, 
    {
      "op": "SliceChannel", 
      "name": "t29_l1_slice", 
      "attr": {"num_outputs": "4"}, 
      "inputs": [[176, 0, 0]]
    }, 
    {
      "op": "Activation", 
      "name": "activation343", 
      "attr": {"act_type": "sigmoid"}, 
      "inputs": [[177, 3, 0]]
    }, 
    {
      "op": "Activation", 
      "name": "activation342", 
      "attr": {"act_type": "sigmoid"}, 
      "inputs": [[177, 2, 0]]
    }, 
    {
      "op": "_mul", 
      "name": "_mul204", 
      "inputs": [[179, 0, 0], [172, 0, 0]]
    }, 
    {
      "op": "Activation", 
      "name": "activation340", 
      "attr": {"act_type": "sigmoid"}, 
      "inputs": [[177, 0, 0]]
    }, 
    {
      "op": "Activation", 
      "name": "activation341", 
      "attr": {"act_type": "tanh"}, 
      "inputs": [[177, 1, 0]]
    }, 
    {
      "op": "_mul", 
      "name": "_mul205", 
      "inputs": [[181, 0, 0], [182, 0, 0]]
    }, 
    {
      "op": "elemwise_add", 
      "name": "_plus137", 
      "inputs": [[180, 0, 0], [183, 0, 0]]
    }, 
    {
      "op": "Activation", 
      "name": "activation344", 
      "attr": {"act_type": "tanh"}, 
      "inputs": [[184, 0, 0]]
    }, 
    {
      "op": "_mul", 
      "name": "_mul206", 
      "inputs": [[178, 0, 0], [185, 0, 0]]
    }, 
    {
      "op": "FullyConnected", 
      "name": "t28_l1_h2h", 
      "attr": {"num_hidden": "512"}, 
      "inputs": [[186, 0, 0], [148, 0, 0], [149, 0, 0]]
    }, 
    {
      "op": "elemwise_add", 
      "name": "_plus140", 
      "inputs": [[140, 0, 0], [187, 0, 0]]
    }, 
    {
      "op": "SliceChannel", 
      "name": "t28_l1_slice", 
      "attr": {"num_outputs": "4"}, 
      "inputs": [[188, 0, 0]]
    }, 
    {
      "op": "Activation", 
      "name": "activation353", 
      "attr": {"act_type": "sigmoid"}, 
      "inputs": [[189, 3, 0]]
    }, 
    {
      "op": "Activation", 
      "name": "activation352", 
      "attr": {"act_type": "sigmoid"}, 
      "inputs": [[189, 2, 0]]
    }, 
    {
      "op": "_mul", 
      "name": "_mul210", 
      "inputs": [[191, 0, 0], [184, 0, 0]]
    }, 
    {
      "op": "Activation", 
      "name": "activation350", 
      "attr": {"act_type": "sigmoid"}, 
      "inputs": [[189, 0, 0]]
    }, 
    {
      "op": "Activation", 
      "name": "activation351", 
      "attr": {"act_type": "tanh"}, 
      "inputs": [[189, 1, 0]]
    }, 
    {
      "op": "_mul", 
      "name": "_mul211", 
      "inputs": [[193, 0, 0], [194, 0, 0]]
    }, 
    {
      "op": "elemwise_add", 
      "name": "_plus141", 
      "inputs": [[192, 0, 0], [195, 0, 0]]
    }, 
    {
      "op": "Activation", 
      "name": "activation354", 
      "attr": {"act_type": "tanh"}, 
      "inputs": [[196, 0, 0]]
    }, 
    {
      "op": "_mul", 
      "name": "_mul212", 
      "inputs": [[190, 0, 0], [197, 0, 0]]
    }, 
    {
      "op": "FullyConnected", 
      "name": "t27_l1_h2h", 
      "attr": {"num_hidden": "512"}, 
      "inputs": [[198, 0, 0], [148, 0, 0], [149, 0, 0]]
    }, 
    {
      "op": "elemwise_add", 
      "name": "_plus144", 
      "inputs": [[138, 0, 0], [199, 0, 0]]
    }, 
    {
      "op": "SliceChannel", 
      "name": "t27_l1_slice", 
      "attr": {"num_outputs": "4"}, 
      "inputs": [[200, 0, 0]]
    }, 
    {
      "op": "Activation", 
      "name": "activation363", 
      "attr": {"act_type": "sigmoid"}, 
      "inputs": [[201, 3, 0]]
    }, 
    {
      "op": "Activation", 
      "name": "activation362", 
      "attr": {"act_type": "sigmoid"}, 
      "inputs": [[201, 2, 0]]
    }, 
    {
      "op": "_mul", 
      "name": "_mul216", 
      "inputs": [[203, 0, 0], [196, 0, 0]]
    }, 
    {
      "op": "Activation", 
      "name": "activation360", 
      "attr": {"act_type": "sigmoid"}, 
      "inputs": [[201, 0, 0]]
    }, 
    {
      "op": "Activation", 
      "name": "activation361", 
      "attr": {"act_type": "tanh"}, 
      "inputs": [[201, 1, 0]]
    }, 
    {
      "op": "_mul", 
      "name": "_mul217", 
      "inputs": [[205, 0, 0], [206, 0, 0]]
    }, 
    {
      "op": "elemwise_add", 
      "name": "_plus145", 
      "inputs": [[204, 0, 0], [207, 0, 0]]
    }, 
    {
      "op": "Activation", 
      "name": "activation364", 
      "attr": {"act_type": "tanh"}, 
      "inputs": [[208, 0, 0]]
    }, 
    {
      "op": "_mul", 
      "name": "_mul218", 
      "inputs": [[202, 0, 0], [209, 0, 0]]
    }, 
    {
      "op": "FullyConnected", 
      "name": "t26_l1_h2h", 
      "attr": {"num_hidden": "512"}, 
      "inputs": [[210, 0, 0], [148, 0, 0], [149, 0, 0]]
    }, 
    {
      "op": "elemwise_add", 
      "name": "_plus148", 
      "inputs": [[136, 0, 0], [211, 0, 0]]
    }, 
    {
      "op": "SliceChannel", 
      "name": "t26_l1_slice", 
      "attr": {"num_outputs": "4"}, 
      "inputs": [[212, 0, 0]]
    }, 
    {
      "op": "Activation", 
      "name": "activation373", 
      "attr": {"act_type": "sigmoid"}, 
      "inputs": [[213, 3, 0]]
    }, 
    {
      "op": "Activation", 
      "name": "activation372", 
      "attr": {"act_type": "sigmoid"}, 
      "inputs": [[213, 2, 0]]
    }, 
    {
      "op": "_mul", 
      "name": "_mul222", 
      "inputs": [[215, 0, 0], [208, 0, 0]]
    }, 
    {
      "op": "Activation", 
      "name": "activation370", 
      "attr": {"act_type": "sigmoid"}, 
      "inputs": [[213, 0, 0]]
    }, 
    {
      "op": "Activation", 
      "name": "activation371", 
      "attr": {"act_type": "tanh"}, 
      "inputs": [[213, 1, 0]]
    }, 
    {
      "op": "_mul", 
      "name": "_mul223", 
      "inputs": [[217, 0, 0], [218, 0, 0]]
    }, 
    {
      "op": "elemwise_add", 
      "name": "_plus149", 
      "inputs": [[216, 0, 0], [219, 0, 0]]
    }, 
    {
      "op": "Activation", 
      "name": "activation374", 
      "attr": {"act_type": "tanh"}, 
      "inputs": [[220, 0, 0]]
    }, 
    {
      "op": "_mul", 
      "name": "_mul224", 
      "inputs": [[214, 0, 0], [221, 0, 0]]
    }, 
    {
      "op": "FullyConnected", 
      "name": "t25_l1_h2h", 
      "attr": {"num_hidden": "512"}, 
      "inputs": [[222, 0, 0], [148, 0, 0], [149, 0, 0]]
    }, 
    {
      "op": "elemwise_add", 
      "name": "_plus152", 
      "inputs": [[134, 0, 0], [223, 0, 0]]
    }, 
    {
      "op": "SliceChannel", 
      "name": "t25_l1_slice", 
      "attr": {"num_outputs": "4"}, 
      "inputs": [[224, 0, 0]]
    }, 
    {
      "op": "Activation", 
      "name": "activation383", 
      "attr": {"act_type": "sigmoid"}, 
      "inputs": [[225, 3, 0]]
    }, 
    {
      "op": "Activation", 
      "name": "activation382", 
      "attr": {"act_type": "sigmoid"}, 
      "inputs": [[225, 2, 0]]
    }, 
    {
      "op": "_mul", 
      "name": "_mul228", 
      "inputs": [[227, 0, 0], [220, 0, 0]]
    }, 
    {
      "op": "Activation", 
      "name": "activation380", 
      "attr": {"act_type": "sigmoid"}, 
      "inputs": [[225, 0, 0]]
    }, 
    {
      "op": "Activation", 
      "name": "activation381", 
      "attr": {"act_type": "tanh"}, 
      "inputs": [[225, 1, 0]]
    }, 
    {
      "op": "_mul", 
      "name": "_mul229", 
      "inputs": [[229, 0, 0], [230, 0, 0]]
    }, 
    {
      "op": "elemwise_add", 
      "name": "_plus153", 
      "inputs": [[228, 0, 0], [231, 0, 0]]
    }, 
    {
      "op": "Activation", 
      "name": "activation384", 
      "attr": {"act_type": "tanh"}, 
      "inputs": [[232, 0, 0]]
    }, 
    {
      "op": "_mul", 
      "name": "_mul230", 
      "inputs": [[226, 0, 0], [233, 0, 0]]
    }, 
    {
      "op": "FullyConnected", 
      "name": "t24_l1_h2h", 
      "attr": {"num_hidden": "512"}, 
      "inputs": [[234, 0, 0], [148, 0, 0], [149, 0, 0]]
    }, 
    {
      "op": "elemwise_add", 
      "name": "_plus156", 
      "inputs": [[132, 0, 0], [235, 0, 0]]
    }, 
    {
      "op": "SliceChannel", 
      "name": "t24_l1_slice", 
      "attr": {"num_outputs": "4"}, 
      "inputs": [[236, 0, 0]]
    }, 
    {
      "op": "Activation", 
      "name": "activation393", 
      "attr": {"act_type": "sigmoid"}, 
      "inputs": [[237, 3, 0]]
    }, 
    {
      "op": "Activation", 
      "name": "activation392", 
      "attr": {"act_type": "sigmoid"}, 
      "inputs": [[237, 2, 0]]
    }, 
    {
      "op": "_mul", 
      "name": "_mul234", 
      "inputs": [[239, 0, 0], [232, 0, 0]]
    }, 
    {
      "op": "Activation", 
      "name": "activation390", 
      "attr": {"act_type": "sigmoid"}, 
      "inputs": [[237, 0, 0]]
    }, 
    {
      "op": "Activation", 
      "name": "activation391", 
      "attr": {"act_type": "tanh"}, 
      "inputs": [[237, 1, 0]]
    }, 
    {
      "op": "_mul", 
      "name": "_mul235", 
      "inputs": [[241, 0, 0], [242, 0, 0]]
    }, 
    {
      "op": "elemwise_add", 
      "name": "_plus157", 
      "inputs": [[240, 0, 0], [243, 0, 0]]
    }, 
    {
      "op": "Activation", 
      "name": "activation394", 
      "attr": {"act_type": "tanh"}, 
      "inputs": [[244, 0, 0]]
    }, 
    {
      "op": "_mul", 
      "name": "_mul236", 
      "inputs": [[238, 0, 0], [245, 0, 0]]
    }, 
    {
      "op": "FullyConnected", 
      "name": "t23_l1_h2h", 
      "attr": {"num_hidden": "512"}, 
      "inputs": [[246, 0, 0], [148, 0, 0], [149, 0, 0]]
    }, 
    {
      "op": "elemwise_add", 
      "name": "_plus160", 
      "inputs": [[130, 0, 0], [247, 0, 0]]
    }, 
    {
      "op": "SliceChannel", 
      "name": "t23_l1_slice", 
      "attr": {"num_outputs": "4"}, 
      "inputs": [[248, 0, 0]]
    }, 
    {
      "op": "Activation", 
      "name": "activation403", 
      "attr": {"act_type": "sigmoid"}, 
      "inputs": [[249, 3, 0]]
    }, 
    {
      "op": "Activation", 
      "name": "activation402", 
      "attr": {"act_type": "sigmoid"}, 
      "inputs": [[249, 2, 0]]
    }, 
    {
      "op": "_mul", 
      "name": "_mul240", 
      "inputs": [[251, 0, 0], [244, 0, 0]]
    }, 
    {
      "op": "Activation", 
      "name": "activation400", 
      "attr": {"act_type": "sigmoid"}, 
      "inputs": [[249, 0, 0]]
    }, 
    {
      "op": "Activation", 
      "name": "activation401", 
      "attr": {"act_type": "tanh"}, 
      "inputs": [[249, 1, 0]]
    }, 
    {
      "op": "_mul", 
      "name": "_mul241", 
      "inputs": [[253, 0, 0], [254, 0, 0]]
    }, 
    {
      "op": "elemwise_add", 
      "name": "_plus161", 
      "inputs": [[252, 0, 0], [255, 0, 0]]
    }, 
    {
      "op": "Activation", 
      "name": "activation404", 
      "attr": {"act_type": "tanh"}, 
      "inputs": [[256, 0, 0]]
    }, 
    {
      "op": "_mul", 
      "name": "_mul242", 
      "inputs": [[250, 0, 0], [257, 0, 0]]
    }, 
    {
      "op": "FullyConnected", 
      "name": "t22_l1_h2h", 
      "attr": {"num_hidden": "512"}, 
      "inputs": [[258, 0, 0], [148, 0, 0], [149, 0, 0]]
    }, 
    {
      "op": "elemwise_add", 
      "name": "_plus164", 
      "inputs": [[128, 0, 0], [259, 0, 0]]
    }, 
    {
      "op": "SliceChannel", 
      "name": "t22_l1_slice", 
      "attr": {"num_outputs": "4"}, 
      "inputs": [[260, 0, 0]]
    }, 
    {
      "op": "Activation", 
      "name": "activation413", 
      "attr": {"act_type": "sigmoid"}, 
      "inputs": [[261, 3, 0]]
    }, 
    {
      "op": "Activation", 
      "name": "activation412", 
      "attr": {"act_type": "sigmoid"}, 
      "inputs": [[261, 2, 0]]
    }, 
    {
      "op": "_mul", 
      "name": "_mul246", 
      "inputs": [[263, 0, 0], [256, 0, 0]]
    }, 
    {
      "op": "Activation", 
      "name": "activation410", 
      "attr": {"act_type": "sigmoid"}, 
      "inputs": [[261, 0, 0]]
    }, 
    {
      "op": "Activation", 
      "name": "activation411", 
      "attr": {"act_type": "tanh"}, 
      "inputs": [[261, 1, 0]]
    }, 
    {
      "op": "_mul", 
      "name": "_mul247", 
      "inputs": [[265, 0, 0], [266, 0, 0]]
    }, 
    {
      "op": "elemwise_add", 
      "name": "_plus165", 
      "inputs": [[264, 0, 0], [267, 0, 0]]
    }, 
    {
      "op": "Activation", 
      "name": "activation414", 
      "attr": {"act_type": "tanh"}, 
      "inputs": [[268, 0, 0]]
    }, 
    {
      "op": "_mul", 
      "name": "_mul248", 
      "inputs": [[262, 0, 0], [269, 0, 0]]
    }, 
    {
      "op": "FullyConnected", 
      "name": "t21_l1_h2h", 
      "attr": {"num_hidden": "512"}, 
      "inputs": [[270, 0, 0], [148, 0, 0], [149, 0, 0]]
    }, 
    {
      "op": "elemwise_add", 
      "name": "_plus168", 
      "inputs": [[126, 0, 0], [271, 0, 0]]
    }, 
    {
      "op": "SliceChannel", 
      "name": "t21_l1_slice", 
      "attr": {"num_outputs": "4"}, 
      "inputs": [[272, 0, 0]]
    }, 
    {
      "op": "Activation", 
      "name": "activation423", 
      "attr": {"act_type": "sigmoid"}, 
      "inputs": [[273, 3, 0]]
    }, 
    {
      "op": "Activation", 
      "name": "activation422", 
      "attr": {"act_type": "sigmoid"}, 
      "inputs": [[273, 2, 0]]
    }, 
    {
      "op": "_mul", 
      "name": "_mul252", 
      "inputs": [[275, 0, 0], [268, 0, 0]]
    }, 
    {
      "op": "Activation", 
      "name": "activation420", 
      "attr": {"act_type": "sigmoid"}, 
      "inputs": [[273, 0, 0]]
    }, 
    {
      "op": "Activation", 
      "name": "activation421", 
      "attr": {"act_type": "tanh"}, 
      "inputs": [[273, 1, 0]]
    }, 
    {
      "op": "_mul", 
      "name": "_mul253", 
      "inputs": [[277, 0, 0], [278, 0, 0]]
    }, 
    {
      "op": "elemwise_add", 
      "name": "_plus169", 
      "inputs": [[276, 0, 0], [279, 0, 0]]
    }, 
    {
      "op": "Activation", 
      "name": "activation424", 
      "attr": {"act_type": "tanh"}, 
      "inputs": [[280, 0, 0]]
    }, 
    {
      "op": "_mul", 
      "name": "_mul254", 
      "inputs": [[274, 0, 0], [281, 0, 0]]
    }, 
    {
      "op": "FullyConnected", 
      "name": "t20_l1_h2h", 
      "attr": {"num_hidden": "512"}, 
      "inputs": [[282, 0, 0], [148, 0, 0], [149, 0, 0]]
    }, 
    {
      "op": "elemwise_add", 
      "name": "_plus172", 
      "inputs": [[124, 0, 0], [283, 0, 0]]
    }, 
    {
      "op": "SliceChannel", 
      "name": "t20_l1_slice", 
      "attr": {"num_outputs": "4"}, 
      "inputs": [[284, 0, 0]]
    }, 
    {
      "op": "Activation", 
      "name": "activation433", 
      "attr": {"act_type": "sigmoid"}, 
      "inputs": [[285, 3, 0]]
    }, 
    {
      "op": "Activation", 
      "name": "activation432", 
      "attr": {"act_type": "sigmoid"}, 
      "inputs": [[285, 2, 0]]
    }, 
    {
      "op": "_mul", 
      "name": "_mul258", 
      "inputs": [[287, 0, 0], [280, 0, 0]]
    }, 
    {
      "op": "Activation", 
      "name": "activation430", 
      "attr": {"act_type": "sigmoid"}, 
      "inputs": [[285, 0, 0]]
    }, 
    {
      "op": "Activation", 
      "name": "activation431", 
      "attr": {"act_type": "tanh"}, 
      "inputs": [[285, 1, 0]]
    }, 
    {
      "op": "_mul", 
      "name": "_mul259", 
      "inputs": [[289, 0, 0], [290, 0, 0]]
    }, 
    {
      "op": "elemwise_add", 
      "name": "_plus173", 
      "inputs": [[288, 0, 0], [291, 0, 0]]
    }, 
    {
      "op": "Activation", 
      "name": "activation434", 
      "attr": {"act_type": "tanh"}, 
      "inputs": [[292, 0, 0]]
    }, 
    {
      "op": "_mul", 
      "name": "_mul260", 
      "inputs": [[286, 0, 0], [293, 0, 0]]
    }, 
    {
      "op": "FullyConnected", 
      "name": "t19_l1_h2h", 
      "attr": {"num_hidden": "512"}, 
      "inputs": [[294, 0, 0], [148, 0, 0], [149, 0, 0]]
    }, 
    {
      "op": "elemwise_add", 
      "name": "_plus176", 
      "inputs": [[122, 0, 0], [295, 0, 0]]
    }, 
    {
      "op": "SliceChannel", 
      "name": "t19_l1_slice", 
      "attr": {"num_outputs": "4"}, 
      "inputs": [[296, 0, 0]]
    }, 
    {
      "op": "Activation", 
      "name": "activation443", 
      "attr": {"act_type": "sigmoid"}, 
      "inputs": [[297, 3, 0]]
    }, 
    {
      "op": "Activation", 
      "name": "activation442", 
      "attr": {"act_type": "sigmoid"}, 
      "inputs": [[297, 2, 0]]
    }, 
    {
      "op": "_mul", 
      "name": "_mul264", 
      "inputs": [[299, 0, 0], [292, 0, 0]]
    }, 
    {
      "op": "Activation", 
      "name": "activation440", 
      "attr": {"act_type": "sigmoid"}, 
      "inputs": [[297, 0, 0]]
    }, 
    {
      "op": "Activation", 
      "name": "activation441", 
      "attr": {"act_type": "tanh"}, 
      "inputs": [[297, 1, 0]]
    }, 
    {
      "op": "_mul", 
      "name": "_mul265", 
      "inputs": [[301, 0, 0], [302, 0, 0]]
    }, 
    {
      "op": "elemwise_add", 
      "name": "_plus177", 
      "inputs": [[300, 0, 0], [303, 0, 0]]
    }, 
    {
      "op": "Activation", 
      "name": "activation444", 
      "attr": {"act_type": "tanh"}, 
      "inputs": [[304, 0, 0]]
    }, 
    {
      "op": "_mul", 
      "name": "_mul266", 
      "inputs": [[298, 0, 0], [305, 0, 0]]
    }, 
    {
      "op": "FullyConnected", 
      "name": "t18_l1_h2h", 
      "attr": {"num_hidden": "512"}, 
      "inputs": [[306, 0, 0], [148, 0, 0], [149, 0, 0]]
    }, 
    {
      "op": "elemwise_add", 
      "name": "_plus180", 
      "inputs": [[120, 0, 0], [307, 0, 0]]
    }, 
    {
      "op": "SliceChannel", 
      "name": "t18_l1_slice", 
      "attr": {"num_outputs": "4"}, 
      "inputs": [[308, 0, 0]]
    }, 
    {
      "op": "Activation", 
      "name": "activation453", 
      "attr": {"act_type": "sigmoid"}, 
      "inputs": [[309, 3, 0]]
    }, 
    {
      "op": "Activation", 
      "name": "activation452", 
      "attr": {"act_type": "sigmoid"}, 
      "inputs": [[309, 2, 0]]
    }, 
    {
      "op": "_mul", 
      "name": "_mul270", 
      "inputs": [[311, 0, 0], [304, 0, 0]]
    }, 
    {
      "op": "Activation", 
      "name": "activation450", 
      "attr": {"act_type": "sigmoid"}, 
      "inputs": [[309, 0, 0]]
    }, 
    {
      "op": "Activation", 
      "name": "activation451", 
      "attr": {"act_type": "tanh"}, 
      "inputs": [[309, 1, 0]]
    }, 
    {
      "op": "_mul", 
      "name": "_mul271", 
      "inputs": [[313, 0, 0], [314, 0, 0]]
    }, 
    {
      "op": "elemwise_add", 
      "name": "_plus181", 
      "inputs": [[312, 0, 0], [315, 0, 0]]
    }, 
    {
      "op": "Activation", 
      "name": "activation454", 
      "attr": {"act_type": "tanh"}, 
      "inputs": [[316, 0, 0]]
    }, 
    {
      "op": "_mul", 
      "name": "_mul272", 
      "inputs": [[310, 0, 0], [317, 0, 0]]
    }, 
    {
      "op": "FullyConnected", 
      "name": "t17_l1_h2h", 
      "attr": {"num_hidden": "512"}, 
      "inputs": [[318, 0, 0], [148, 0, 0], [149, 0, 0]]
    }, 
    {
      "op": "elemwise_add", 
      "name": "_plus184", 
      "inputs": [[118, 0, 0], [319, 0, 0]]
    }, 
    {
      "op": "SliceChannel", 
      "name": "t17_l1_slice", 
      "attr": {"num_outputs": "4"}, 
      "inputs": [[320, 0, 0]]
    }, 
    {
      "op": "Activation", 
      "name": "activation463", 
      "attr": {"act_type": "sigmoid"}, 
      "inputs": [[321, 3, 0]]
    }, 
    {
      "op": "Activation", 
      "name": "activation462", 
      "attr": {"act_type": "sigmoid"}, 
      "inputs": [[321, 2, 0]]
    }, 
    {
      "op": "_mul", 
      "name": "_mul276", 
      "inputs": [[323, 0, 0], [316, 0, 0]]
    }, 
    {
      "op": "Activation", 
      "name": "activation460", 
      "attr": {"act_type": "sigmoid"}, 
      "inputs": [[321, 0, 0]]
    }, 
    {
      "op": "Activation", 
      "name": "activation461", 
      "attr": {"act_type": "tanh"}, 
      "inputs": [[321, 1, 0]]
    }, 
    {
      "op": "_mul", 
      "name": "_mul277", 
      "inputs": [[325, 0, 0], [326, 0, 0]]
    }, 
    {
      "op": "elemwise_add", 
      "name": "_plus185", 
      "inputs": [[324, 0, 0], [327, 0, 0]]
    }, 
    {
      "op": "Activation", 
      "name": "activation464", 
      "attr": {"act_type": "tanh"}, 
      "inputs": [[328, 0, 0]]
    }, 
    {
      "op": "_mul", 
      "name": "_mul278", 
      "inputs": [[322, 0, 0], [329, 0, 0]]
    }, 
    {
      "op": "FullyConnected", 
      "name": "t16_l1_h2h", 
      "attr": {"num_hidden": "512"}, 
      "inputs": [[330, 0, 0], [148, 0, 0], [149, 0, 0]]
    }, 
    {
      "op": "elemwise_add", 
      "name": "_plus188", 
      "inputs": [[116, 0, 0], [331, 0, 0]]
    }, 
    {
      "op": "SliceChannel", 
      "name": "t16_l1_slice", 
      "attr": {"num_outputs": "4"}, 
      "inputs": [[332, 0, 0]]
    }, 
    {
      "op": "Activation", 
      "name": "activation473", 
      "attr": {"act_type": "sigmoid"}, 
      "inputs": [[333, 3, 0]]
    }, 
    {
      "op": "Activation", 
      "name": "activation472", 
      "attr": {"act_type": "sigmoid"}, 
      "inputs": [[333, 2, 0]]
    }, 
    {
      "op": "_mul", 
      "name": "_mul282", 
      "inputs": [[335, 0, 0], [328, 0, 0]]
    }, 
    {
      "op": "Activation", 
      "name": "activation470", 
      "attr": {"act_type": "sigmoid"}, 
      "inputs": [[333, 0, 0]]
    }, 
    {
      "op": "Activation", 
      "name": "activation471", 
      "attr": {"act_type": "tanh"}, 
      "inputs": [[333, 1, 0]]
    }, 
    {
      "op": "_mul", 
      "name": "_mul283", 
      "inputs": [[337, 0, 0], [338, 0, 0]]
    }, 
    {
      "op": "elemwise_add", 
      "name": "_plus189", 
      "inputs": [[336, 0, 0], [339, 0, 0]]
    }, 
    {
      "op": "Activation", 
      "name": "activation474", 
      "attr": {"act_type": "tanh"}, 
      "inputs": [[340, 0, 0]]
    }, 
    {
      "op": "_mul", 
      "name": "_mul284", 
      "inputs": [[334, 0, 0], [341, 0, 0]]
    }, 
    {
      "op": "FullyConnected", 
      "name": "t15_l1_h2h", 
      "attr": {"num_hidden": "512"}, 
      "inputs": [[342, 0, 0], [148, 0, 0], [149, 0, 0]]
    }, 
    {
      "op": "elemwise_add", 
      "name": "_plus192", 
      "inputs": [[114, 0, 0], [343, 0, 0]]
    }, 
    {
      "op": "SliceChannel", 
      "name": "t15_l1_slice", 
      "attr": {"num_outputs": "4"}, 
      "inputs": [[344, 0, 0]]
    }, 
    {
      "op": "Activation", 
      "name": "activation483", 
      "attr": {"act_type": "sigmoid"}, 
      "inputs": [[345, 3, 0]]
    }, 
    {
      "op": "Activation", 
      "name": "activation482", 
      "attr": {"act_type": "sigmoid"}, 
      "inputs": [[345, 2, 0]]
    }, 
    {
      "op": "_mul", 
      "name": "_mul288", 
      "inputs": [[347, 0, 0], [340, 0, 0]]
    }, 
    {
      "op": "Activation", 
      "name": "activation480", 
      "attr": {"act_type": "sigmoid"}, 
      "inputs": [[345, 0, 0]]
    }, 
    {
      "op": "Activation", 
      "name": "activation481", 
      "attr": {"act_type": "tanh"}, 
      "inputs": [[345, 1, 0]]
    }, 
    {
      "op": "_mul", 
      "name": "_mul289", 
      "inputs": [[349, 0, 0], [350, 0, 0]]
    }, 
    {
      "op": "elemwise_add", 
      "name": "_plus193", 
      "inputs": [[348, 0, 0], [351, 0, 0]]
    }, 
    {
      "op": "Activation", 
      "name": "activation484", 
      "attr": {"act_type": "tanh"}, 
      "inputs": [[352, 0, 0]]
    }, 
    {
      "op": "_mul", 
      "name": "_mul290", 
      "inputs": [[346, 0, 0], [353, 0, 0]]
    }, 
    {
      "op": "FullyConnected", 
      "name": "t14_l1_h2h", 
      "attr": {"num_hidden": "512"}, 
      "inputs": [[354, 0, 0], [148, 0, 0], [149, 0, 0]]
    }, 
    {
      "op": "elemwise_add", 
      "name": "_plus196", 
      "inputs": [[112, 0, 0], [355, 0, 0]]
    }, 
    {
      "op": "SliceChannel", 
      "name": "t14_l1_slice", 
      "attr": {"num_outputs": "4"}, 
      "inputs": [[356, 0, 0]]
    }, 
    {
      "op": "Activation", 
      "name": "activation493", 
      "attr": {"act_type": "sigmoid"}, 
      "inputs": [[357, 3, 0]]
    }, 
    {
      "op": "Activation", 
      "name": "activation492", 
      "attr": {"act_type": "sigmoid"}, 
      "inputs": [[357, 2, 0]]
    }, 
    {
      "op": "_mul", 
      "name": "_mul294", 
      "inputs": [[359, 0, 0], [352, 0, 0]]
    }, 
    {
      "op": "Activation", 
      "name": "activation490", 
      "attr": {"act_type": "sigmoid"}, 
      "inputs": [[357, 0, 0]]
    }, 
    {
      "op": "Activation", 
      "name": "activation491", 
      "attr": {"act_type": "tanh"}, 
      "inputs": [[357, 1, 0]]
    }, 
    {
      "op": "_mul", 
      "name": "_mul295", 
      "inputs": [[361, 0, 0], [362, 0, 0]]
    }, 
    {
      "op": "elemwise_add", 
      "name": "_plus197", 
      "inputs": [[360, 0, 0], [363, 0, 0]]
    }, 
    {
      "op": "Activation", 
      "name": "activation494", 
      "attr": {"act_type": "tanh"}, 
      "inputs": [[364, 0, 0]]
    }, 
    {
      "op": "_mul", 
      "name": "_mul296", 
      "inputs": [[358, 0, 0], [365, 0, 0]]
    }, 
    {
      "op": "FullyConnected", 
      "name": "t13_l1_h2h", 
      "attr": {"num_hidden": "512"}, 
      "inputs": [[366, 0, 0], [148, 0, 0], [149, 0, 0]]
    }, 
    {
      "op": "elemwise_add", 
      "name": "_plus200", 
      "inputs": [[110, 0, 0], [367, 0, 0]]
    }, 
    {
      "op": "SliceChannel", 
      "name": "t13_l1_slice", 
      "attr": {"num_outputs": "4"}, 
      "inputs": [[368, 0, 0]]
    }, 
    {
      "op": "Activation", 
      "name": "activation503", 
      "attr": {"act_type": "sigmoid"}, 
      "inputs": [[369, 3, 0]]
    }, 
    {
      "op": "Activation", 
      "name": "activation502", 
      "attr": {"act_type": "sigmoid"}, 
      "inputs": [[369, 2, 0]]
    }, 
    {
      "op": "_mul", 
      "name": "_mul300", 
      "inputs": [[371, 0, 0], [364, 0, 0]]
    }, 
    {
      "op": "Activation", 
      "name": "activation500", 
      "attr": {"act_type": "sigmoid"}, 
      "inputs": [[369, 0, 0]]
    }, 
    {
      "op": "Activation", 
      "name": "activation501", 
      "attr": {"act_type": "tanh"}, 
      "inputs": [[369, 1, 0]]
    }, 
    {
      "op": "_mul", 
      "name": "_mul301", 
      "inputs": [[373, 0, 0], [374, 0, 0]]
    }, 
    {
      "op": "elemwise_add", 
      "name": "_plus201", 
      "inputs": [[372, 0, 0], [375, 0, 0]]
    }, 
    {
      "op": "Activation", 
      "name": "activation504", 
      "attr": {"act_type": "tanh"}, 
      "inputs": [[376, 0, 0]]
    }, 
    {
      "op": "_mul", 
      "name": "_mul302", 
      "inputs": [[370, 0, 0], [377, 0, 0]]
    }, 
    {
      "op": "FullyConnected", 
      "name": "t12_l1_h2h", 
      "attr": {"num_hidden": "512"}, 
      "inputs": [[378, 0, 0], [148, 0, 0], [149, 0, 0]]
    }, 
    {
      "op": "elemwise_add", 
      "name": "_plus204", 
      "inputs": [[108, 0, 0], [379, 0, 0]]
    }, 
    {
      "op": "SliceChannel", 
      "name": "t12_l1_slice", 
      "attr": {"num_outputs": "4"}, 
      "inputs": [[380, 0, 0]]
    }, 
    {
      "op": "Activation", 
      "name": "activation513", 
      "attr": {"act_type": "sigmoid"}, 
      "inputs": [[381, 3, 0]]
    }, 
    {
      "op": "Activation", 
      "name": "activation512", 
      "attr": {"act_type": "sigmoid"}, 
      "inputs": [[381, 2, 0]]
    }, 
    {
      "op": "_mul", 
      "name": "_mul306", 
      "inputs": [[383, 0, 0], [376, 0, 0]]
    }, 
    {
      "op": "Activation", 
      "name": "activation510", 
      "attr": {"act_type": "sigmoid"}, 
      "inputs": [[381, 0, 0]]
    }, 
    {
      "op": "Activation", 
      "name": "activation511", 
      "attr": {"act_type": "tanh"}, 
      "inputs": [[381, 1, 0]]
    }, 
    {
      "op": "_mul", 
      "name": "_mul307", 
      "inputs": [[385, 0, 0], [386, 0, 0]]
    }, 
    {
      "op": "elemwise_add", 
      "name": "_plus205", 
      "inputs": [[384, 0, 0], [387, 0, 0]]
    }, 
    {
      "op": "Activation", 
      "name": "activation514", 
      "attr": {"act_type": "tanh"}, 
      "inputs": [[388, 0, 0]]
    }, 
    {
      "op": "_mul", 
      "name": "_mul308", 
      "inputs": [[382, 0, 0], [389, 0, 0]]
    }, 
    {
      "op": "FullyConnected", 
      "name": "t11_l1_h2h", 
      "attr": {"num_hidden": "512"}, 
      "inputs": [[390, 0, 0], [148, 0, 0], [149, 0, 0]]
    }, 
    {
      "op": "elemwise_add", 
      "name": "_plus208", 
      "inputs": [[106, 0, 0], [391, 0, 0]]
    }, 
    {
      "op": "SliceChannel", 
      "name": "t11_l1_slice", 
      "attr": {"num_outputs": "4"}, 
      "inputs": [[392, 0, 0]]
    }, 
    {
      "op": "Activation", 
      "name": "activation523", 
      "attr": {"act_type": "sigmoid"}, 
      "inputs": [[393, 3, 0]]
    }, 
    {
      "op": "Activation", 
      "name": "activation522", 
      "attr": {"act_type": "sigmoid"}, 
      "inputs": [[393, 2, 0]]
    }, 
    {
      "op": "_mul", 
      "name": "_mul312", 
      "inputs": [[395, 0, 0], [388, 0, 0]]
    }, 
    {
      "op": "Activation", 
      "name": "activation520", 
      "attr": {"act_type": "sigmoid"}, 
      "inputs": [[393, 0, 0]]
    }, 
    {
      "op": "Activation", 
      "name": "activation521", 
      "attr": {"act_type": "tanh"}, 
      "inputs": [[393, 1, 0]]
    }, 
    {
      "op": "_mul", 
      "name": "_mul313", 
      "inputs": [[397, 0, 0], [398, 0, 0]]
    }, 
    {
      "op": "elemwise_add", 
      "name": "_plus209", 
      "inputs": [[396, 0, 0], [399, 0, 0]]
    }, 
    {
      "op": "Activation", 
      "name": "activation524", 
      "attr": {"act_type": "tanh"}, 
      "inputs": [[400, 0, 0]]
    }, 
    {
      "op": "_mul", 
      "name": "_mul314", 
      "inputs": [[394, 0, 0], [401, 0, 0]]
    }, 
    {
      "op": "FullyConnected", 
      "name": "t10_l1_h2h", 
      "attr": {"num_hidden": "512"}, 
      "inputs": [[402, 0, 0], [148, 0, 0], [149, 0, 0]]
    }, 
    {
      "op": "elemwise_add", 
      "name": "_plus212", 
      "inputs": [[104, 0, 0], [403, 0, 0]]
    }, 
    {
      "op": "SliceChannel", 
      "name": "t10_l1_slice", 
      "attr": {"num_outputs": "4"}, 
      "inputs": [[404, 0, 0]]
    }, 
    {
      "op": "Activation", 
      "name": "activation533", 
      "attr": {"act_type": "sigmoid"}, 
      "inputs": [[405, 3, 0]]
    }, 
    {
      "op": "Activation", 
      "name": "activation532", 
      "attr": {"act_type": "sigmoid"}, 
      "inputs": [[405, 2, 0]]
    }, 
    {
      "op": "_mul", 
      "name": "_mul318", 
      "inputs": [[407, 0, 0], [400, 0, 0]]
    }, 
    {
      "op": "Activation", 
      "name": "activation530", 
      "attr": {"act_type": "sigmoid"}, 
      "inputs": [[405, 0, 0]]
    }, 
    {
      "op": "Activation", 
      "name": "activation531", 
      "attr": {"act_type": "tanh"}, 
      "inputs": [[405, 1, 0]]
    }, 
    {
      "op": "_mul", 
      "name": "_mul319", 
      "inputs": [[409, 0, 0], [410, 0, 0]]
    }, 
    {
      "op": "elemwise_add", 
      "name": "_plus213", 
      "inputs": [[408, 0, 0], [411, 0, 0]]
    }, 
    {
      "op": "Activation", 
      "name": "activation534", 
      "attr": {"act_type": "tanh"}, 
      "inputs": [[412, 0, 0]]
    }, 
    {
      "op": "_mul", 
      "name": "_mul320", 
      "inputs": [[406, 0, 0], [413, 0, 0]]
    }, 
    {
      "op": "FullyConnected", 
      "name": "t9_l1_h2h", 
      "attr": {"num_hidden": "512"}, 
      "inputs": [[414, 0, 0], [148, 0, 0], [149, 0, 0]]
    }, 
    {
      "op": "elemwise_add", 
      "name": "_plus216", 
      "inputs": [[102, 0, 0], [415, 0, 0]]
    }, 
    {
      "op": "SliceChannel", 
      "name": "t9_l1_slice", 
      "attr": {"num_outputs": "4"}, 
      "inputs": [[416, 0, 0]]
    }, 
    {
      "op": "Activation", 
      "name": "activation543", 
      "attr": {"act_type": "sigmoid"}, 
      "inputs": [[417, 3, 0]]
    }, 
    {
      "op": "Activation", 
      "name": "activation542", 
      "attr": {"act_type": "sigmoid"}, 
      "inputs": [[417, 2, 0]]
    }, 
    {
      "op": "_mul", 
      "name": "_mul324", 
      "inputs": [[419, 0, 0], [412, 0, 0]]
    }, 
    {
      "op": "Activation", 
      "name": "activation540", 
      "attr": {"act_type": "sigmoid"}, 
      "inputs": [[417, 0, 0]]
    }, 
    {
      "op": "Activation", 
      "name": "activation541", 
      "attr": {"act_type": "tanh"}, 
      "inputs": [[417, 1, 0]]
    }, 
    {
      "op": "_mul", 
      "name": "_mul325", 
      "inputs": [[421, 0, 0], [422, 0, 0]]
    }, 
    {
      "op": "elemwise_add", 
      "name": "_plus217", 
      "inputs": [[420, 0, 0], [423, 0, 0]]
    }, 
    {
      "op": "Activation", 
      "name": "activation544", 
      "attr": {"act_type": "tanh"}, 
      "inputs": [[424, 0, 0]]
    }, 
    {
      "op": "_mul", 
      "name": "_mul326", 
      "inputs": [[418, 0, 0], [425, 0, 0]]
    }, 
    {
      "op": "FullyConnected", 
      "name": "t8_l1_h2h", 
      "attr": {"num_hidden": "512"}, 
      "inputs": [[426, 0, 0], [148, 0, 0], [149, 0, 0]]
    }, 
    {
      "op": "elemwise_add", 
      "name": "_plus220", 
      "inputs": [[100, 0, 0], [427, 0, 0]]
    }, 
    {
      "op": "SliceChannel", 
      "name": "t8_l1_slice", 
      "attr": {"num_outputs": "4"}, 
      "inputs": [[428, 0, 0]]
    }, 
    {
      "op": "Activation", 
      "name": "activation553", 
      "attr": {"act_type": "sigmoid"}, 
      "inputs": [[429, 3, 0]]
    }, 
    {
      "op": "Activation", 
      "name": "activation552", 
      "attr": {"act_type": "sigmoid"}, 
      "inputs": [[429, 2, 0]]
    }, 
    {
      "op": "_mul", 
      "name": "_mul330", 
      "inputs": [[431, 0, 0], [424, 0, 0]]
    }, 
    {
      "op": "Activation", 
      "name": "activation550", 
      "attr": {"act_type": "sigmoid"}, 
      "inputs": [[429, 0, 0]]
    }, 
    {
      "op": "Activation", 
      "name": "activation551", 
      "attr": {"act_type": "tanh"}, 
      "inputs": [[429, 1, 0]]
    }, 
    {
      "op": "_mul", 
      "name": "_mul331", 
      "inputs": [[433, 0, 0], [434, 0, 0]]
    }, 
    {
      "op": "elemwise_add", 
      "name": "_plus221", 
      "inputs": [[432, 0, 0], [435, 0, 0]]
    }, 
    {
      "op": "Activation", 
      "name": "activation554", 
      "attr": {"act_type": "tanh"}, 
      "inputs": [[436, 0, 0]]
    }, 
    {
      "op": "_mul", 
      "name": "_mul332", 
      "inputs": [[430, 0, 0], [437, 0, 0]]
    }, 
    {
      "op": "FullyConnected", 
      "name": "t7_l1_h2h", 
      "attr": {"num_hidden": "512"}, 
      "inputs": [[438, 0, 0], [148, 0, 0], [149, 0, 0]]
    }, 
    {
      "op": "elemwise_add", 
      "name": "_plus224", 
      "inputs": [[98, 0, 0], [439, 0, 0]]
    }, 
    {
      "op": "SliceChannel", 
      "name": "t7_l1_slice", 
      "attr": {"num_outputs": "4"}, 
      "inputs": [[440, 0, 0]]
    }, 
    {
      "op": "Activation", 
      "name": "activation563", 
      "attr": {"act_type": "sigmoid"}, 
      "inputs": [[441, 3, 0]]
    }, 
    {
      "op": "Activation", 
      "name": "activation562", 
      "attr": {"act_type": "sigmoid"}, 
      "inputs": [[441, 2, 0]]
    }, 
    {
      "op": "_mul", 
      "name": "_mul336", 
      "inputs": [[443, 0, 0], [436, 0, 0]]
    }, 
    {
      "op": "Activation", 
      "name": "activation560", 
      "attr": {"act_type": "sigmoid"}, 
      "inputs": [[441, 0, 0]]
    }, 
    {
      "op": "Activation", 
      "name": "activation561", 
      "attr": {"act_type": "tanh"}, 
      "inputs": [[441, 1, 0]]
    }, 
    {
      "op": "_mul", 
      "name": "_mul337", 
      "inputs": [[445, 0, 0], [446, 0, 0]]
    }, 
    {
      "op": "elemwise_add", 
      "name": "_plus225", 
      "inputs": [[444, 0, 0], [447, 0, 0]]
    }, 
    {
      "op": "Activation", 
      "name": "activation564", 
      "attr": {"act_type": "tanh"}, 
      "inputs": [[448, 0, 0]]
    }, 
    {
      "op": "_mul", 
      "name": "_mul338", 
      "inputs": [[442, 0, 0], [449, 0, 0]]
    }, 
    {
      "op": "FullyConnected", 
      "name": "t6_l1_h2h", 
      "attr": {"num_hidden": "512"}, 
      "inputs": [[450, 0, 0], [148, 0, 0], [149, 0, 0]]
    }, 
    {
      "op": "elemwise_add", 
      "name": "_plus228", 
      "inputs": [[96, 0, 0], [451, 0, 0]]
    }, 
    {
      "op": "SliceChannel", 
      "name": "t6_l1_slice", 
      "attr": {"num_outputs": "4"}, 
      "inputs": [[452, 0, 0]]
    }, 
    {
      "op": "Activation", 
      "name": "activation573", 
      "attr": {"act_type": "sigmoid"}, 
      "inputs": [[453, 3, 0]]
    }, 
    {
      "op": "Activation", 
      "name": "activation572", 
      "attr": {"act_type": "sigmoid"}, 
      "inputs": [[453, 2, 0]]
    }, 
    {
      "op": "_mul", 
      "name": "_mul342", 
      "inputs": [[455, 0, 0], [448, 0, 0]]
    }, 
    {
      "op": "Activation", 
      "name": "activation570", 
      "attr": {"act_type": "sigmoid"}, 
      "inputs": [[453, 0, 0]]
    }, 
    {
      "op": "Activation", 
      "name": "activation571", 
      "attr": {"act_type": "tanh"}, 
      "inputs": [[453, 1, 0]]
    }, 
    {
      "op": "_mul", 
      "name": "_mul343", 
      "inputs": [[457, 0, 0], [458, 0, 0]]
    }, 
    {
      "op": "elemwise_add", 
      "name": "_plus229", 
      "inputs": [[456, 0, 0], [459, 0, 0]]
    }, 
    {
      "op": "Activation", 
      "name": "activation574", 
      "attr": {"act_type": "tanh"}, 
      "inputs": [[460, 0, 0]]
    }, 
    {
      "op": "_mul", 
      "name": "_mul344", 
      "inputs": [[454, 0, 0], [461, 0, 0]]
    }, 
    {
      "op": "FullyConnected", 
      "name": "t5_l1_h2h", 
      "attr": {"num_hidden": "512"}, 
      "inputs": [[462, 0, 0], [148, 0, 0], [149, 0, 0]]
    }, 
    {
      "op": "elemwise_add", 
      "name": "_plus232", 
      "inputs": [[94, 0, 0], [463, 0, 0]]
    }, 
    {
      "op": "SliceChannel", 
      "name": "t5_l1_slice", 
      "attr": {"num_outputs": "4"}, 
      "inputs": [[464, 0, 0]]
    }, 
    {
      "op": "Activation", 
      "name": "activation583", 
      "attr": {"act_type": "sigmoid"}, 
      "inputs": [[465, 3, 0]]
    }, 
    {
      "op": "Activation", 
      "name": "activation582", 
      "attr": {"act_type": "sigmoid"}, 
      "inputs": [[465, 2, 0]]
    }, 
    {
      "op": "_mul", 
      "name": "_mul348", 
      "inputs": [[467, 0, 0], [460, 0, 0]]
    }, 
    {
      "op": "Activation", 
      "name": "activation580", 
      "attr": {"act_type": "sigmoid"}, 
      "inputs": [[465, 0, 0]]
    }, 
    {
      "op": "Activation", 
      "name": "activation581", 
      "attr": {"act_type": "tanh"}, 
      "inputs": [[465, 1, 0]]
    }, 
    {
      "op": "_mul", 
      "name": "_mul349", 
      "inputs": [[469, 0, 0], [470, 0, 0]]
    }, 
    {
      "op": "elemwise_add", 
      "name": "_plus233", 
      "inputs": [[468, 0, 0], [471, 0, 0]]
    }, 
    {
      "op": "Activation", 
      "name": "activation584", 
      "attr": {"act_type": "tanh"}, 
      "inputs": [[472, 0, 0]]
    }, 
    {
      "op": "_mul", 
      "name": "_mul350", 
      "inputs": [[466, 0, 0], [473, 0, 0]]
    }, 
    {
      "op": "FullyConnected", 
      "name": "t4_l1_h2h", 
      "attr": {"num_hidden": "512"}, 
      "inputs": [[474, 0, 0], [148, 0, 0], [149, 0, 0]]
    }, 
    {
      "op": "elemwise_add", 
      "name": "_plus236", 
      "inputs": [[92, 0, 0], [475, 0, 0]]
    }, 
    {
      "op": "SliceChannel", 
      "name": "t4_l1_slice", 
      "attr": {"num_outputs": "4"}, 
      "inputs": [[476, 0, 0]]
    }, 
    {
      "op": "Activation", 
      "name": "activation593", 
      "attr": {"act_type": "sigmoid"}, 
      "inputs": [[477, 3, 0]]
    }, 
    {
      "op": "Activation", 
      "name": "activation592", 
      "attr": {"act_type": "sigmoid"}, 
      "inputs": [[477, 2, 0]]
    }, 
    {
      "op": "_mul", 
      "name": "_mul354", 
      "inputs": [[479, 0, 0], [472, 0, 0]]
    }, 
    {
      "op": "Activation", 
      "name": "activation590", 
      "attr": {"act_type": "sigmoid"}, 
      "inputs": [[477, 0, 0]]
    }, 
    {
      "op": "Activation", 
      "name": "activation591", 
      "attr": {"act_type": "tanh"}, 
      "inputs": [[477, 1, 0]]
    }, 
    {
      "op": "_mul", 
      "name": "_mul355", 
      "inputs": [[481, 0, 0], [482, 0, 0]]
    }, 
    {
      "op": "elemwise_add", 
      "name": "_plus237", 
      "inputs": [[480, 0, 0], [483, 0, 0]]
    }, 
    {
      "op": "Activation", 
      "name": "activation594", 
      "attr": {"act_type": "tanh"}, 
      "inputs": [[484, 0, 0]]
    }, 
    {
      "op": "_mul", 
      "name": "_mul356", 
      "inputs": [[478, 0, 0], [485, 0, 0]]
    }, 
    {
      "op": "FullyConnected", 
      "name": "t3_l1_h2h", 
      "attr": {"num_hidden": "512"}, 
      "inputs": [[486, 0, 0], [148, 0, 0], [149, 0, 0]]
    }, 
    {
      "op": "elemwise_add", 
      "name": "_plus240", 
      "inputs": [[90, 0, 0], [487, 0, 0]]
    }, 
    {
      "op": "SliceChannel", 
      "name": "t3_l1_slice", 
      "attr": {"num_outputs": "4"}, 
      "inputs": [[488, 0, 0]]
    }, 
    {
      "op": "Activation", 
      "name": "activation603", 
      "attr": {"act_type": "sigmoid"}, 
      "inputs": [[489, 3, 0]]
    }, 
    {
      "op": "Activation", 
      "name": "activation602", 
      "attr": {"act_type": "sigmoid"}, 
      "inputs": [[489, 2, 0]]
    }, 
    {
      "op": "_mul", 
      "name": "_mul360", 
      "inputs": [[491, 0, 0], [484, 0, 0]]
    }, 
    {
      "op": "Activation", 
      "name": "activation600", 
      "attr": {"act_type": "sigmoid"}, 
      "inputs": [[489, 0, 0]]
    }, 
    {
      "op": "Activation", 
      "name": "activation601", 
      "attr": {"act_type": "tanh"}, 
      "inputs": [[489, 1, 0]]
    }, 
    {
      "op": "_mul", 
      "name": "_mul361", 
      "inputs": [[493, 0, 0], [494, 0, 0]]
    }, 
    {
      "op": "elemwise_add", 
      "name": "_plus241", 
      "inputs": [[492, 0, 0], [495, 0, 0]]
    }, 
    {
      "op": "Activation", 
      "name": "activation604", 
      "attr": {"act_type": "tanh"}, 
      "inputs": [[496, 0, 0]]
    }, 
    {
      "op": "_mul", 
      "name": "_mul362", 
      "inputs": [[490, 0, 0], [497, 0, 0]]
    }, 
    {
      "op": "FullyConnected", 
      "name": "t2_l1_h2h", 
      "attr": {"num_hidden": "512"}, 
      "inputs": [[498, 0, 0], [148, 0, 0], [149, 0, 0]]
    }, 
    {
      "op": "elemwise_add", 
      "name": "_plus244", 
      "inputs": [[88, 0, 0], [499, 0, 0]]
    }, 
    {
      "op": "SliceChannel", 
      "name": "t2_l1_slice", 
      "attr": {"num_outputs": "4"}, 
      "inputs": [[500, 0, 0]]
    }, 
    {
      "op": "Activation", 
      "name": "activation613", 
      "attr": {"act_type": "sigmoid"}, 
      "inputs": [[501, 3, 0]]
    }, 
    {
      "op": "Activation", 
      "name": "activation612", 
      "attr": {"act_type": "sigmoid"}, 
      "inputs": [[501, 2, 0]]
    }, 
    {
      "op": "_mul", 
      "name": "_mul366", 
      "inputs": [[503, 0, 0], [496, 0, 0]]
    }, 
    {
      "op": "Activation", 
      "name": "activation610", 
      "attr": {"act_type": "sigmoid"}, 
      "inputs": [[501, 0, 0]]
    }, 
    {
      "op": "Activation", 
      "name": "activation611", 
      "attr": {"act_type": "tanh"}, 
      "inputs": [[501, 1, 0]]
    }, 
    {
      "op": "_mul", 
      "name": "_mul367", 
      "inputs": [[505, 0, 0], [506, 0, 0]]
    }, 
    {
      "op": "elemwise_add", 
      "name": "_plus245", 
      "inputs": [[504, 0, 0], [507, 0, 0]]
    }, 
    {
      "op": "Activation", 
      "name": "activation614", 
      "attr": {"act_type": "tanh"}, 
      "inputs": [[508, 0, 0]]
    }, 
    {
      "op": "_mul", 
      "name": "_mul368", 
      "inputs": [[502, 0, 0], [509, 0, 0]]
    }, 
    {
      "op": "FullyConnected", 
      "name": "t1_l1_h2h", 
      "attr": {"num_hidden": "512"}, 
      "inputs": [[510, 0, 0], [148, 0, 0], [149, 0, 0]]
    }, 
    {
      "op": "elemwise_add", 
      "name": "_plus248", 
      "inputs": [[86, 0, 0], [511, 0, 0]]
    }, 
    {
      "op": "SliceChannel", 
      "name": "t1_l1_slice", 
      "attr": {"num_outputs": "4"}, 
      "inputs": [[512, 0, 0]]
    }, 
    {
      "op": "Activation", 
      "name": "activation623", 
      "attr": {"act_type": "sigmoid"}, 
      "inputs": [[513, 3, 0]]
    }, 
    {
      "op": "Activation", 
      "name": "activation622", 
      "attr": {"act_type": "sigmoid"}, 
      "inputs": [[513, 2, 0]]
    }, 
    {
      "op": "_mul", 
      "name": "_mul372", 
      "inputs": [[515, 0, 0], [508, 0, 0]]
    }, 
    {
      "op": "Activation", 
      "name": "activation620", 
      "attr": {"act_type": "sigmoid"}, 
      "inputs": [[513, 0, 0]]
    }, 
    {
      "op": "Activation", 
      "name": "activation621", 
      "attr": {"act_type": "tanh"}, 
      "inputs": [[513, 1, 0]]
    }, 
    {
      "op": "_mul", 
      "name": "_mul373", 
      "inputs": [[517, 0, 0], [518, 0, 0]]
    }, 
    {
      "op": "elemwise_add", 
      "name": "_plus249", 
      "inputs": [[516, 0, 0], [519, 0, 0]]
    }, 
    {
      "op": "Activation", 
      "name": "activation624", 
      "attr": {"act_type": "tanh"}, 
      "inputs": [[520, 0, 0]]
    }, 
    {
      "op": "_mul", 
      "name": "_mul374", 
      "inputs": [[514, 0, 0], [521, 0, 0]]
    }, 
    {
      "op": "FullyConnected", 
      "name": "t0_l1_h2h", 
      "attr": {"num_hidden": "512"}, 
      "inputs": [[522, 0, 0], [148, 0, 0], [149, 0, 0]]
    }, 
    {
      "op": "elemwise_add", 
      "name": "_plus252", 
      "inputs": [[84, 0, 0], [523, 0, 0]]
    }, 
    {
      "op": "SliceChannel", 
      "name": "t0_l1_slice", 
      "attr": {"num_outputs": "4"}, 
      "inputs": [[524, 0, 0]]
    }, 
    {
      "op": "Activation", 
      "name": "activation633", 
      "attr": {"act_type": "sigmoid"}, 
      "inputs": [[525, 3, 0]]
    }, 
    {
      "op": "Activation", 
      "name": "activation632", 
      "attr": {"act_type": "sigmoid"}, 
      "inputs": [[525, 2, 0]]
    }, 
    {
      "op": "_mul", 
      "name": "_mul378", 
      "inputs": [[527, 0, 0], [520, 0, 0]]
    }, 
    {
      "op": "Activation", 
      "name": "activation630", 
      "attr": {"act_type": "sigmoid"}, 
      "inputs": [[525, 0, 0]]
    }, 
    {
      "op": "Activation", 
      "name": "activation631", 
      "attr": {"act_type": "tanh"}, 
      "inputs": [[525, 1, 0]]
    }, 
    {
      "op": "_mul", 
      "name": "_mul379", 
      "inputs": [[529, 0, 0], [530, 0, 0]]
    }, 
    {
      "op": "elemwise_add", 
      "name": "_plus253", 
      "inputs": [[528, 0, 0], [531, 0, 0]]
    }, 
    {
      "op": "Activation", 
      "name": "activation634", 
      "attr": {"act_type": "tanh"}, 
      "inputs": [[532, 0, 0]]
    }, 
    {
      "op": "_mul", 
      "name": "_mul380", 
      "inputs": [[526, 0, 0], [533, 0, 0]]
    }, 
    {
      "op": "null", 
      "name": "l3_i2h_weight", 
      "inputs": []
    }, 
    {
      "op": "null", 
      "name": "l3_i2h_bias", 
      "inputs": []
    }, 
    {
      "op": "FullyConnected", 
      "name": "t0_l1_i2h", 
      "attr": {"num_hidden": "512"}, 
      "inputs": [[534, 0, 0], [535, 0, 0], [536, 0, 0]]
    }, 
    {
      "op": "FullyConnected", 
      "name": "t1_l1_i2h", 
      "attr": {"num_hidden": "512"}, 
      "inputs": [[522, 0, 0], [535, 0, 0], [536, 0, 0]]
    }, 
    {
      "op": "FullyConnected", 
      "name": "t2_l1_i2h", 
      "attr": {"num_hidden": "512"}, 
      "inputs": [[510, 0, 0], [535, 0, 0], [536, 0, 0]]
    }, 
    {
      "op": "FullyConnected", 
      "name": "t3_l1_i2h", 
      "attr": {"num_hidden": "512"}, 
      "inputs": [[498, 0, 0], [535, 0, 0], [536, 0, 0]]
    }, 
    {
      "op": "FullyConnected", 
      "name": "t4_l1_i2h", 
      "attr": {"num_hidden": "512"}, 
      "inputs": [[486, 0, 0], [535, 0, 0], [536, 0, 0]]
    }, 
    {
      "op": "FullyConnected", 
      "name": "t5_l1_i2h", 
      "attr": {"num_hidden": "512"}, 
      "inputs": [[474, 0, 0], [535, 0, 0], [536, 0, 0]]
    }, 
    {
      "op": "FullyConnected", 
      "name": "t6_l1_i2h", 
      "attr": {"num_hidden": "512"}, 
      "inputs": [[462, 0, 0], [535, 0, 0], [536, 0, 0]]
    }, 
    {
      "op": "FullyConnected", 
      "name": "t7_l1_i2h", 
      "attr": {"num_hidden": "512"}, 
      "inputs": [[450, 0, 0], [535, 0, 0], [536, 0, 0]]
    }, 
    {
      "op": "FullyConnected", 
      "name": "t8_l1_i2h", 
      "attr": {"num_hidden": "512"}, 
      "inputs": [[438, 0, 0], [535, 0, 0], [536, 0, 0]]
    }, 
    {
      "op": "FullyConnected", 
      "name": "t9_l1_i2h", 
      "attr": {"num_hidden": "512"}, 
      "inputs": [[426, 0, 0], [535, 0, 0], [536, 0, 0]]
    }, 
    {
      "op": "FullyConnected", 
      "name": "t10_l1_i2h", 
      "attr": {"num_hidden": "512"}, 
      "inputs": [[414, 0, 0], [535, 0, 0], [536, 0, 0]]
    }, 
    {
      "op": "FullyConnected", 
      "name": "t11_l1_i2h", 
      "attr": {"num_hidden": "512"}, 
      "inputs": [[402, 0, 0], [535, 0, 0], [536, 0, 0]]
    }, 
    {
      "op": "FullyConnected", 
      "name": "t12_l1_i2h", 
      "attr": {"num_hidden": "512"}, 
      "inputs": [[390, 0, 0], [535, 0, 0], [536, 0, 0]]
    }, 
    {
      "op": "FullyConnected", 
      "name": "t13_l1_i2h", 
      "attr": {"num_hidden": "512"}, 
      "inputs": [[378, 0, 0], [535, 0, 0], [536, 0, 0]]
    }, 
    {
      "op": "FullyConnected", 
      "name": "t14_l1_i2h", 
      "attr": {"num_hidden": "512"}, 
      "inputs": [[366, 0, 0], [535, 0, 0], [536, 0, 0]]
    }, 
    {
      "op": "FullyConnected", 
      "name": "t15_l1_i2h", 
      "attr": {"num_hidden": "512"}, 
      "inputs": [[354, 0, 0], [535, 0, 0], [536, 0, 0]]
    }, 
    {
      "op": "FullyConnected", 
      "name": "t16_l1_i2h", 
      "attr": {"num_hidden": "512"}, 
      "inputs": [[342, 0, 0], [535, 0, 0], [536, 0, 0]]
    }, 
    {
      "op": "FullyConnected", 
      "name": "t17_l1_i2h", 
      "attr": {"num_hidden": "512"}, 
      "inputs": [[330, 0, 0], [535, 0, 0], [536, 0, 0]]
    }, 
    {
      "op": "FullyConnected", 
      "name": "t18_l1_i2h", 
      "attr": {"num_hidden": "512"}, 
      "inputs": [[318, 0, 0], [535, 0, 0], [536, 0, 0]]
    }, 
    {
      "op": "FullyConnected", 
      "name": "t19_l1_i2h", 
      "attr": {"num_hidden": "512"}, 
      "inputs": [[306, 0, 0], [535, 0, 0], [536, 0, 0]]
    }, 
    {
      "op": "FullyConnected", 
      "name": "t20_l1_i2h", 
      "attr": {"num_hidden": "512"}, 
      "inputs": [[294, 0, 0], [535, 0, 0], [536, 0, 0]]
    }, 
    {
      "op": "FullyConnected", 
      "name": "t21_l1_i2h", 
      "attr": {"num_hidden": "512"}, 
      "inputs": [[282, 0, 0], [535, 0, 0], [536, 0, 0]]
    }, 
    {
      "op": "FullyConnected", 
      "name": "t22_l1_i2h", 
      "attr": {"num_hidden": "512"}, 
      "inputs": [[270, 0, 0], [535, 0, 0], [536, 0, 0]]
    }, 
    {
      "op": "FullyConnected", 
      "name": "t23_l1_i2h", 
      "attr": {"num_hidden": "512"}, 
      "inputs": [[258, 0, 0], [535, 0, 0], [536, 0, 0]]
    }, 
    {
      "op": "FullyConnected", 
      "name": "t24_l1_i2h", 
      "attr": {"num_hidden": "512"}, 
      "inputs": [[246, 0, 0], [535, 0, 0], [536, 0, 0]]
    }, 
    {
      "op": "FullyConnected", 
      "name": "t25_l1_i2h", 
      "attr": {"num_hidden": "512"}, 
      "inputs": [[234, 0, 0], [535, 0, 0], [536, 0, 0]]
    }, 
    {
      "op": "FullyConnected", 
      "name": "t26_l1_i2h", 
      "attr": {"num_hidden": "512"}, 
      "inputs": [[222, 0, 0], [535, 0, 0], [536, 0, 0]]
    }, 
    {
      "op": "FullyConnected", 
      "name": "t27_l1_i2h", 
      "attr": {"num_hidden": "512"}, 
      "inputs": [[210, 0, 0], [535, 0, 0], [536, 0, 0]]
    }, 
    {
      "op": "FullyConnected", 
      "name": "t28_l1_i2h", 
      "attr": {"num_hidden": "512"}, 
      "inputs": [[198, 0, 0], [535, 0, 0], [536, 0, 0]]
    }, 
    {
      "op": "FullyConnected", 
      "name": "t29_l1_i2h", 
      "attr": {"num_hidden": "512"}, 
      "inputs": [[186, 0, 0], [535, 0, 0], [536, 0, 0]]
    }, 
    {
      "op": "FullyConnected", 
      "name": "t30_l1_i2h", 
      "attr": {"num_hidden": "512"}, 
      "inputs": [[174, 0, 0], [535, 0, 0], [536, 0, 0]]
    }, 
    {
      "op": "FullyConnected", 
      "name": "t31_l1_i2h", 
      "attr": {"num_hidden": "512"}, 
      "inputs": [[162, 0, 0], [535, 0, 0], [536, 0, 0]]
    }, 
    {
      "op": "null", 
      "name": "l3_init_h", 
      "inputs": []
    }, 
    {
      "op": "null", 
      "name": "l3_h2h_weight", 
      "inputs": []
    }, 
    {
      "op": "null", 
      "name": "l3_h2h_bias", 
      "inputs": []
    }, 
    {
      "op": "FullyConnected", 
      "name": "t31_l1_h2h", 
      "attr": {"num_hidden": "512"}, 
      "inputs": [[569, 0, 0], [570, 0, 0], [571, 0, 0]]
    }, 
    {
      "op": "elemwise_add", 
      "name": "_plus130", 
      "inputs": [[568, 0, 0], [572, 0, 0]]
    }, 
    {
      "op": "SliceChannel", 
      "name": "t31_l1_slice", 
      "attr": {"num_outputs": "4"}, 
      "inputs": [[573, 0, 0]]
    }, 
    {
      "op": "Activation", 
      "name": "activation328", 
      "attr": {"act_type": "sigmoid"}, 
      "inputs": [[574, 3, 0]]
    }, 
    {
      "op": "Activation", 
      "name": "activation327", 
      "attr": {"act_type": "sigmoid"}, 
      "inputs": [[574, 2, 0]]
    }, 
    {
      "op": "null", 
      "name": "l3_init_c", 
      "inputs": []
    }, 
    {
      "op": "_mul", 
      "name": "_mul195", 
      "inputs": [[576, 0, 0], [577, 0, 0]]
    }, 
    {
      "op": "Activation", 
      "name": "activation325", 
      "attr": {"act_type": "sigmoid"}, 
      "inputs": [[574, 0, 0]]
    }, 
    {
      "op": "Activation", 
      "name": "activation326", 
      "attr": {"act_type": "tanh"}, 
      "inputs": [[574, 1, 0]]
    }, 
    {
      "op": "_mul", 
      "name": "_mul196", 
      "inputs": [[579, 0, 0], [580, 0, 0]]
    }, 
    {
      "op": "elemwise_add", 
      "name": "_plus131", 
      "inputs": [[578, 0, 0], [581, 0, 0]]
    }, 
    {
      "op": "Activation", 
      "name": "activation329", 
      "attr": {"act_type": "tanh"}, 
      "inputs": [[582, 0, 0]]
    }, 
    {
      "op": "_mul", 
      "name": "_mul197", 
      "inputs": [[575, 0, 0], [583, 0, 0]]
    }, 
    {
      "op": "FullyConnected", 
      "name": "t30_l1_h2h", 
      "attr": {"num_hidden": "512"}, 
      "inputs": [[584, 0, 0], [570, 0, 0], [571, 0, 0]]
    }, 
    {
      "op": "elemwise_add", 
      "name": "_plus134", 
      "inputs": [[567, 0, 0], [585, 0, 0]]
    }, 
    {
      "op": "SliceChannel", 
      "name": "t30_l1_slice", 
      "attr": {"num_outputs": "4"}, 
      "inputs": [[586, 0, 0]]
    }, 
    {
      "op": "Activation", 
      "name": "activation338", 
      "attr": {"act_type": "sigmoid"}, 
      "inputs": [[587, 3, 0]]
    }, 
    {
      "op": "Activation", 
      "name": "activation337", 
      "attr": {"act_type": "sigmoid"}, 
      "inputs": [[587, 2, 0]]
    }, 
    {
      "op": "_mul", 
      "name": "_mul201", 
      "inputs": [[589, 0, 0], [582, 0, 0]]
    }, 
    {
      "op": "Activation", 
      "name": "activation335", 
      "attr": {"act_type": "sigmoid"}, 
      "inputs": [[587, 0, 0]]
    }, 
    {
      "op": "Activation", 
      "name": "activation336", 
      "attr": {"act_type": "tanh"}, 
      "inputs": [[587, 1, 0]]
    }, 
    {
      "op": "_mul", 
      "name": "_mul202", 
      "inputs": [[591, 0, 0], [592, 0, 0]]
    }, 
    {
      "op": "elemwise_add", 
      "name": "_plus135", 
      "inputs": [[590, 0, 0], [593, 0, 0]]
    }, 
    {
      "op": "Activation", 
      "name": "activation339", 
      "attr": {"act_type": "tanh"}, 
      "inputs": [[594, 0, 0]]
    }, 
    {
      "op": "_mul", 
      "name": "_mul203", 
      "inputs": [[588, 0, 0], [595, 0, 0]]
    }, 
    {
      "op": "FullyConnected", 
      "name": "t29_l1_h2h", 
      "attr": {"num_hidden": "512"}, 
      "inputs": [[596, 0, 0], [570, 0, 0], [571, 0, 0]]
    }, 
    {
      "op": "elemwise_add", 
      "name": "_plus138", 
      "inputs": [[566, 0, 0], [597, 0, 0]]
    }, 
    {
      "op": "SliceChannel", 
      "name": "t29_l1_slice", 
      "attr": {"num_outputs": "4"}, 
      "inputs": [[598, 0, 0]]
    }, 
    {
      "op": "Activation", 
      "name": "activation348", 
      "attr": {"act_type": "sigmoid"}, 
      "inputs": [[599, 3, 0]]
    }, 
    {
      "op": "Activation", 
      "name": "activation347", 
      "attr": {"act_type": "sigmoid"}, 
      "inputs": [[599, 2, 0]]
    }, 
    {
      "op": "_mul", 
      "name": "_mul207", 
      "inputs": [[601, 0, 0], [594, 0, 0]]
    }, 
    {
      "op": "Activation", 
      "name": "activation345", 
      "attr": {"act_type": "sigmoid"}, 
      "inputs": [[599, 0, 0]]
    }, 
    {
      "op": "Activation", 
      "name": "activation346", 
      "attr": {"act_type": "tanh"}, 
      "inputs": [[599, 1, 0]]
    }, 
    {
      "op": "_mul", 
      "name": "_mul208", 
      "inputs": [[603, 0, 0], [604, 0, 0]]
    }, 
    {
      "op": "elemwise_add", 
      "name": "_plus139", 
      "inputs": [[602, 0, 0], [605, 0, 0]]
    }, 
    {
      "op": "Activation", 
      "name": "activation349", 
      "attr": {"act_type": "tanh"}, 
      "inputs": [[606, 0, 0]]
    }, 
    {
      "op": "_mul", 
      "name": "_mul209", 
      "inputs": [[600, 0, 0], [607, 0, 0]]
    }, 
    {
      "op": "FullyConnected", 
      "name": "t28_l1_h2h", 
      "attr": {"num_hidden": "512"}, 
      "inputs": [[608, 0, 0], [570, 0, 0], [571, 0, 0]]
    }, 
    {
      "op": "elemwise_add", 
      "name": "_plus142", 
      "inputs": [[565, 0, 0], [609, 0, 0]]
    }, 
    {
      "op": "SliceChannel", 
      "name": "t28_l1_slice", 
      "attr": {"num_outputs": "4"}, 
      "inputs": [[610, 0, 0]]
    }, 
    {
      "op": "Activation", 
      "name": "activation358", 
      "attr": {"act_type": "sigmoid"}, 
      "inputs": [[611, 3, 0]]
    }, 
    {
      "op": "Activation", 
      "name": "activation357", 
      "attr": {"act_type": "sigmoid"}, 
      "inputs": [[611, 2, 0]]
    }, 
    {
      "op": "_mul", 
      "name": "_mul213", 
      "inputs": [[613, 0, 0], [606, 0, 0]]
    }, 
    {
      "op": "Activation", 
      "name": "activation355", 
      "attr": {"act_type": "sigmoid"}, 
      "inputs": [[611, 0, 0]]
    }, 
    {
      "op": "Activation", 
      "name": "activation356", 
      "attr": {"act_type": "tanh"}, 
      "inputs": [[611, 1, 0]]
    }, 
    {
      "op": "_mul", 
      "name": "_mul214", 
      "inputs": [[615, 0, 0], [616, 0, 0]]
    }, 
    {
      "op": "elemwise_add", 
      "name": "_plus143", 
      "inputs": [[614, 0, 0], [617, 0, 0]]
    }, 
    {
      "op": "Activation", 
      "name": "activation359", 
      "attr": {"act_type": "tanh"}, 
      "inputs": [[618, 0, 0]]
    }, 
    {
      "op": "_mul", 
      "name": "_mul215", 
      "inputs": [[612, 0, 0], [619, 0, 0]]
    }, 
    {
      "op": "FullyConnected", 
      "name": "t27_l1_h2h", 
      "attr": {"num_hidden": "512"}, 
      "inputs": [[620, 0, 0], [570, 0, 0], [571, 0, 0]]
    }, 
    {
      "op": "elemwise_add", 
      "name": "_plus146", 
      "inputs": [[564, 0, 0], [621, 0, 0]]
    }, 
    {
      "op": "SliceChannel", 
      "name": "t27_l1_slice", 
      "attr": {"num_outputs": "4"}, 
      "inputs": [[622, 0, 0]]
    }, 
    {
      "op": "Activation", 
      "name": "activation368", 
      "attr": {"act_type": "sigmoid"}, 
      "inputs": [[623, 3, 0]]
    }, 
    {
      "op": "Activation", 
      "name": "activation367", 
      "attr": {"act_type": "sigmoid"}, 
      "inputs": [[623, 2, 0]]
    }, 
    {
      "op": "_mul", 
      "name": "_mul219", 
      "inputs": [[625, 0, 0], [618, 0, 0]]
    }, 
    {
      "op": "Activation", 
      "name": "activation365", 
      "attr": {"act_type": "sigmoid"}, 
      "inputs": [[623, 0, 0]]
    }, 
    {
      "op": "Activation", 
      "name": "activation366", 
      "attr": {"act_type": "tanh"}, 
      "inputs": [[623, 1, 0]]
    }, 
    {
      "op": "_mul", 
      "name": "_mul220", 
      "inputs": [[627, 0, 0], [628, 0, 0]]
    }, 
    {
      "op": "elemwise_add", 
      "name": "_plus147", 
      "inputs": [[626, 0, 0], [629, 0, 0]]
    }, 
    {
      "op": "Activation", 
      "name": "activation369", 
      "attr": {"act_type": "tanh"}, 
      "inputs": [[630, 0, 0]]
    }, 
    {
      "op": "_mul", 
      "name": "_mul221", 
      "inputs": [[624, 0, 0], [631, 0, 0]]
    }, 
    {
      "op": "FullyConnected", 
      "name": "t26_l1_h2h", 
      "attr": {"num_hidden": "512"}, 
      "inputs": [[632, 0, 0], [570, 0, 0], [571, 0, 0]]
    }, 
    {
      "op": "elemwise_add", 
      "name": "_plus150", 
      "inputs": [[563, 0, 0], [633, 0, 0]]
    }, 
    {
      "op": "SliceChannel", 
      "name": "t26_l1_slice", 
      "attr": {"num_outputs": "4"}, 
      "inputs": [[634, 0, 0]]
    }, 
    {
      "op": "Activation", 
      "name": "activation378", 
      "attr": {"act_type": "sigmoid"}, 
      "inputs": [[635, 3, 0]]
    }, 
    {
      "op": "Activation", 
      "name": "activation377", 
      "attr": {"act_type": "sigmoid"}, 
      "inputs": [[635, 2, 0]]
    }, 
    {
      "op": "_mul", 
      "name": "_mul225", 
      "inputs": [[637, 0, 0], [630, 0, 0]]
    }, 
    {
      "op": "Activation", 
      "name": "activation375", 
      "attr": {"act_type": "sigmoid"}, 
      "inputs": [[635, 0, 0]]
    }, 
    {
      "op": "Activation", 
      "name": "activation376", 
      "attr": {"act_type": "tanh"}, 
      "inputs": [[635, 1, 0]]
    }, 
    {
      "op": "_mul", 
      "name": "_mul226", 
      "inputs": [[639, 0, 0], [640, 0, 0]]
    }, 
    {
      "op": "elemwise_add", 
      "name": "_plus151", 
      "inputs": [[638, 0, 0], [641, 0, 0]]
    }, 
    {
      "op": "Activation", 
      "name": "activation379", 
      "attr": {"act_type": "tanh"}, 
      "inputs": [[642, 0, 0]]
    }, 
    {
      "op": "_mul", 
      "name": "_mul227", 
      "inputs": [[636, 0, 0], [643, 0, 0]]
    }, 
    {
      "op": "FullyConnected", 
      "name": "t25_l1_h2h", 
      "attr": {"num_hidden": "512"}, 
      "inputs": [[644, 0, 0], [570, 0, 0], [571, 0, 0]]
    }, 
    {
      "op": "elemwise_add", 
      "name": "_plus154", 
      "inputs": [[562, 0, 0], [645, 0, 0]]
    }, 
    {
      "op": "SliceChannel", 
      "name": "t25_l1_slice", 
      "attr": {"num_outputs": "4"}, 
      "inputs": [[646, 0, 0]]
    }, 
    {
      "op": "Activation", 
      "name": "activation388", 
      "attr": {"act_type": "sigmoid"}, 
      "inputs": [[647, 3, 0]]
    }, 
    {
      "op": "Activation", 
      "name": "activation387", 
      "attr": {"act_type": "sigmoid"}, 
      "inputs": [[647, 2, 0]]
    }, 
    {
      "op": "_mul", 
      "name": "_mul231", 
      "inputs": [[649, 0, 0], [642, 0, 0]]
    }, 
    {
      "op": "Activation", 
      "name": "activation385", 
      "attr": {"act_type": "sigmoid"}, 
      "inputs": [[647, 0, 0]]
    }, 
    {
      "op": "Activation", 
      "name": "activation386", 
      "attr": {"act_type": "tanh"}, 
      "inputs": [[647, 1, 0]]
    }, 
    {
      "op": "_mul", 
      "name": "_mul232", 
      "inputs": [[651, 0, 0], [652, 0, 0]]
    }, 
    {
      "op": "elemwise_add", 
      "name": "_plus155", 
      "inputs": [[650, 0, 0], [653, 0, 0]]
    }, 
    {
      "op": "Activation", 
      "name": "activation389", 
      "attr": {"act_type": "tanh"}, 
      "inputs": [[654, 0, 0]]
    }, 
    {
      "op": "_mul", 
      "name": "_mul233", 
      "inputs": [[648, 0, 0], [655, 0, 0]]
    }, 
    {
      "op": "FullyConnected", 
      "name": "t24_l1_h2h", 
      "attr": {"num_hidden": "512"}, 
      "inputs": [[656, 0, 0], [570, 0, 0], [571, 0, 0]]
    }, 
    {
      "op": "elemwise_add", 
      "name": "_plus158", 
      "inputs": [[561, 0, 0], [657, 0, 0]]
    }, 
    {
      "op": "SliceChannel", 
      "name": "t24_l1_slice", 
      "attr": {"num_outputs": "4"}, 
      "inputs": [[658, 0, 0]]
    }, 
    {
      "op": "Activation", 
      "name": "activation398", 
      "attr": {"act_type": "sigmoid"}, 
      "inputs": [[659, 3, 0]]
    }, 
    {
      "op": "Activation", 
      "name": "activation397", 
      "attr": {"act_type": "sigmoid"}, 
      "inputs": [[659, 2, 0]]
    }, 
    {
      "op": "_mul", 
      "name": "_mul237", 
      "inputs": [[661, 0, 0], [654, 0, 0]]
    }, 
    {
      "op": "Activation", 
      "name": "activation395", 
      "attr": {"act_type": "sigmoid"}, 
      "inputs": [[659, 0, 0]]
    }, 
    {
      "op": "Activation", 
      "name": "activation396", 
      "attr": {"act_type": "tanh"}, 
      "inputs": [[659, 1, 0]]
    }, 
    {
      "op": "_mul", 
      "name": "_mul238", 
      "inputs": [[663, 0, 0], [664, 0, 0]]
    }, 
    {
      "op": "elemwise_add", 
      "name": "_plus159", 
      "inputs": [[662, 0, 0], [665, 0, 0]]
    }, 
    {
      "op": "Activation", 
      "name": "activation399", 
      "attr": {"act_type": "tanh"}, 
      "inputs": [[666, 0, 0]]
    }, 
    {
      "op": "_mul", 
      "name": "_mul239", 
      "inputs": [[660, 0, 0], [667, 0, 0]]
    }, 
    {
      "op": "FullyConnected", 
      "name": "t23_l1_h2h", 
      "attr": {"num_hidden": "512"}, 
      "inputs": [[668, 0, 0], [570, 0, 0], [571, 0, 0]]
    }, 
    {
      "op": "elemwise_add", 
      "name": "_plus162", 
      "inputs": [[560, 0, 0], [669, 0, 0]]
    }, 
    {
      "op": "SliceChannel", 
      "name": "t23_l1_slice", 
      "attr": {"num_outputs": "4"}, 
      "inputs": [[670, 0, 0]]
    }, 
    {
      "op": "Activation", 
      "name": "activation408", 
      "attr": {"act_type": "sigmoid"}, 
      "inputs": [[671, 3, 0]]
    }, 
    {
      "op": "Activation", 
      "name": "activation407", 
      "attr": {"act_type": "sigmoid"}, 
      "inputs": [[671, 2, 0]]
    }, 
    {
      "op": "_mul", 
      "name": "_mul243", 
      "inputs": [[673, 0, 0], [666, 0, 0]]
    }, 
    {
      "op": "Activation", 
      "name": "activation405", 
      "attr": {"act_type": "sigmoid"}, 
      "inputs": [[671, 0, 0]]
    }, 
    {
      "op": "Activation", 
      "name": "activation406", 
      "attr": {"act_type": "tanh"}, 
      "inputs": [[671, 1, 0]]
    }, 
    {
      "op": "_mul", 
      "name": "_mul244", 
      "inputs": [[675, 0, 0], [676, 0, 0]]
    }, 
    {
      "op": "elemwise_add", 
      "name": "_plus163", 
      "inputs": [[674, 0, 0], [677, 0, 0]]
    }, 
    {
      "op": "Activation", 
      "name": "activation409", 
      "attr": {"act_type": "tanh"}, 
      "inputs": [[678, 0, 0]]
    }, 
    {
      "op": "_mul", 
      "name": "_mul245", 
      "inputs": [[672, 0, 0], [679, 0, 0]]
    }, 
    {
      "op": "FullyConnected", 
      "name": "t22_l1_h2h", 
      "attr": {"num_hidden": "512"}, 
      "inputs": [[680, 0, 0], [570, 0, 0], [571, 0, 0]]
    }, 
    {
      "op": "elemwise_add", 
      "name": "_plus166", 
      "inputs": [[559, 0, 0], [681, 0, 0]]
    }, 
    {
      "op": "SliceChannel", 
      "name": "t22_l1_slice", 
      "attr": {"num_outputs": "4"}, 
      "inputs": [[682, 0, 0]]
    }, 
    {
      "op": "Activation", 
      "name": "activation418", 
      "attr": {"act_type": "sigmoid"}, 
      "inputs": [[683, 3, 0]]
    }, 
    {
      "op": "Activation", 
      "name": "activation417", 
      "attr": {"act_type": "sigmoid"}, 
      "inputs": [[683, 2, 0]]
    }, 
    {
      "op": "_mul", 
      "name": "_mul249", 
      "inputs": [[685, 0, 0], [678, 0, 0]]
    }, 
    {
      "op": "Activation", 
      "name": "activation415", 
      "attr": {"act_type": "sigmoid"}, 
      "inputs": [[683, 0, 0]]
    }, 
    {
      "op": "Activation", 
      "name": "activation416", 
      "attr": {"act_type": "tanh"}, 
      "inputs": [[683, 1, 0]]
    }, 
    {
      "op": "_mul", 
      "name": "_mul250", 
      "inputs": [[687, 0, 0], [688, 0, 0]]
    }, 
    {
      "op": "elemwise_add", 
      "name": "_plus167", 
      "inputs": [[686, 0, 0], [689, 0, 0]]
    }, 
    {
      "op": "Activation", 
      "name": "activation419", 
      "attr": {"act_type": "tanh"}, 
      "inputs": [[690, 0, 0]]
    }, 
    {
      "op": "_mul", 
      "name": "_mul251", 
      "inputs": [[684, 0, 0], [691, 0, 0]]
    }, 
    {
      "op": "FullyConnected", 
      "name": "t21_l1_h2h", 
      "attr": {"num_hidden": "512"}, 
      "inputs": [[692, 0, 0], [570, 0, 0], [571, 0, 0]]
    }, 
    {
      "op": "elemwise_add", 
      "name": "_plus170", 
      "inputs": [[558, 0, 0], [693, 0, 0]]
    }, 
    {
      "op": "SliceChannel", 
      "name": "t21_l1_slice", 
      "attr": {"num_outputs": "4"}, 
      "inputs": [[694, 0, 0]]
    }, 
    {
      "op": "Activation", 
      "name": "activation428", 
      "attr": {"act_type": "sigmoid"}, 
      "inputs": [[695, 3, 0]]
    }, 
    {
      "op": "Activation", 
      "name": "activation427", 
      "attr": {"act_type": "sigmoid"}, 
      "inputs": [[695, 2, 0]]
    }, 
    {
      "op": "_mul", 
      "name": "_mul255", 
      "inputs": [[697, 0, 0], [690, 0, 0]]
    }, 
    {
      "op": "Activation", 
      "name": "activation425", 
      "attr": {"act_type": "sigmoid"}, 
      "inputs": [[695, 0, 0]]
    }, 
    {
      "op": "Activation", 
      "name": "activation426", 
      "attr": {"act_type": "tanh"}, 
      "inputs": [[695, 1, 0]]
    }, 
    {
      "op": "_mul", 
      "name": "_mul256", 
      "inputs": [[699, 0, 0], [700, 0, 0]]
    }, 
    {
      "op": "elemwise_add", 
      "name": "_plus171", 
      "inputs": [[698, 0, 0], [701, 0, 0]]
    }, 
    {
      "op": "Activation", 
      "name": "activation429", 
      "attr": {"act_type": "tanh"}, 
      "inputs": [[702, 0, 0]]
    }, 
    {
      "op": "_mul", 
      "name": "_mul257", 
      "inputs": [[696, 0, 0], [703, 0, 0]]
    }, 
    {
      "op": "FullyConnected", 
      "name": "t20_l1_h2h", 
      "attr": {"num_hidden": "512"}, 
      "inputs": [[704, 0, 0], [570, 0, 0], [571, 0, 0]]
    }, 
    {
      "op": "elemwise_add", 
      "name": "_plus174", 
      "inputs": [[557, 0, 0], [705, 0, 0]]
    }, 
    {
      "op": "SliceChannel", 
      "name": "t20_l1_slice", 
      "attr": {"num_outputs": "4"}, 
      "inputs": [[706, 0, 0]]
    }, 
    {
      "op": "Activation", 
      "name": "activation438", 
      "attr": {"act_type": "sigmoid"}, 
      "inputs": [[707, 3, 0]]
    }, 
    {
      "op": "Activation", 
      "name": "activation437", 
      "attr": {"act_type": "sigmoid"}, 
      "inputs": [[707, 2, 0]]
    }, 
    {
      "op": "_mul", 
      "name": "_mul261", 
      "inputs": [[709, 0, 0], [702, 0, 0]]
    }, 
    {
      "op": "Activation", 
      "name": "activation435", 
      "attr": {"act_type": "sigmoid"}, 
      "inputs": [[707, 0, 0]]
    }, 
    {
      "op": "Activation", 
      "name": "activation436", 
      "attr": {"act_type": "tanh"}, 
      "inputs": [[707, 1, 0]]
    }, 
    {
      "op": "_mul", 
      "name": "_mul262", 
      "inputs": [[711, 0, 0], [712, 0, 0]]
    }, 
    {
      "op": "elemwise_add", 
      "name": "_plus175", 
      "inputs": [[710, 0, 0], [713, 0, 0]]
    }, 
    {
      "op": "Activation", 
      "name": "activation439", 
      "attr": {"act_type": "tanh"}, 
      "inputs": [[714, 0, 0]]
    }, 
    {
      "op": "_mul", 
      "name": "_mul263", 
      "inputs": [[708, 0, 0], [715, 0, 0]]
    }, 
    {
      "op": "FullyConnected", 
      "name": "t19_l1_h2h", 
      "attr": {"num_hidden": "512"}, 
      "inputs": [[716, 0, 0], [570, 0, 0], [571, 0, 0]]
    }, 
    {
      "op": "elemwise_add", 
      "name": "_plus178", 
      "inputs": [[556, 0, 0], [717, 0, 0]]
    }, 
    {
      "op": "SliceChannel", 
      "name": "t19_l1_slice", 
      "attr": {"num_outputs": "4"}, 
      "inputs": [[718, 0, 0]]
    }, 
    {
      "op": "Activation", 
      "name": "activation448", 
      "attr": {"act_type": "sigmoid"}, 
      "inputs": [[719, 3, 0]]
    }, 
    {
      "op": "Activation", 
      "name": "activation447", 
      "attr": {"act_type": "sigmoid"}, 
      "inputs": [[719, 2, 0]]
    }, 
    {
      "op": "_mul", 
      "name": "_mul267", 
      "inputs": [[721, 0, 0], [714, 0, 0]]
    }, 
    {
      "op": "Activation", 
      "name": "activation445", 
      "attr": {"act_type": "sigmoid"}, 
      "inputs": [[719, 0, 0]]
    }, 
    {
      "op": "Activation", 
      "name": "activation446", 
      "attr": {"act_type": "tanh"}, 
      "inputs": [[719, 1, 0]]
    }, 
    {
      "op": "_mul", 
      "name": "_mul268", 
      "inputs": [[723, 0, 0], [724, 0, 0]]
    }, 
    {
      "op": "elemwise_add", 
      "name": "_plus179", 
      "inputs": [[722, 0, 0], [725, 0, 0]]
    }, 
    {
      "op": "Activation", 
      "name": "activation449", 
      "attr": {"act_type": "tanh"}, 
      "inputs": [[726, 0, 0]]
    }, 
    {
      "op": "_mul", 
      "name": "_mul269", 
      "inputs": [[720, 0, 0], [727, 0, 0]]
    }, 
    {
      "op": "FullyConnected", 
      "name": "t18_l1_h2h", 
      "attr": {"num_hidden": "512"}, 
      "inputs": [[728, 0, 0], [570, 0, 0], [571, 0, 0]]
    }, 
    {
      "op": "elemwise_add", 
      "name": "_plus182", 
      "inputs": [[555, 0, 0], [729, 0, 0]]
    }, 
    {
      "op": "SliceChannel", 
      "name": "t18_l1_slice", 
      "attr": {"num_outputs": "4"}, 
      "inputs": [[730, 0, 0]]
    }, 
    {
      "op": "Activation", 
      "name": "activation458", 
      "attr": {"act_type": "sigmoid"}, 
      "inputs": [[731, 3, 0]]
    }, 
    {
      "op": "Activation", 
      "name": "activation457", 
      "attr": {"act_type": "sigmoid"}, 
      "inputs": [[731, 2, 0]]
    }, 
    {
      "op": "_mul", 
      "name": "_mul273", 
      "inputs": [[733, 0, 0], [726, 0, 0]]
    }, 
    {
      "op": "Activation", 
      "name": "activation455", 
      "attr": {"act_type": "sigmoid"}, 
      "inputs": [[731, 0, 0]]
    }, 
    {
      "op": "Activation", 
      "name": "activation456", 
      "attr": {"act_type": "tanh"}, 
      "inputs": [[731, 1, 0]]
    }, 
    {
      "op": "_mul", 
      "name": "_mul274", 
      "inputs": [[735, 0, 0], [736, 0, 0]]
    }, 
    {
      "op": "elemwise_add", 
      "name": "_plus183", 
      "inputs": [[734, 0, 0], [737, 0, 0]]
    }, 
    {
      "op": "Activation", 
      "name": "activation459", 
      "attr": {"act_type": "tanh"}, 
      "inputs": [[738, 0, 0]]
    }, 
    {
      "op": "_mul", 
      "name": "_mul275", 
      "inputs": [[732, 0, 0], [739, 0, 0]]
    }, 
    {
      "op": "FullyConnected", 
      "name": "t17_l1_h2h", 
      "attr": {"num_hidden": "512"}, 
      "inputs": [[740, 0, 0], [570, 0, 0], [571, 0, 0]]
    }, 
    {
      "op": "elemwise_add", 
      "name": "_plus186", 
      "inputs": [[554, 0, 0], [741, 0, 0]]
    }, 
    {
      "op": "SliceChannel", 
      "name": "t17_l1_slice", 
      "attr": {"num_outputs": "4"}, 
      "inputs": [[742, 0, 0]]
    }, 
    {
      "op": "Activation", 
      "name": "activation468", 
      "attr": {"act_type": "sigmoid"}, 
      "inputs": [[743, 3, 0]]
    }, 
    {
      "op": "Activation", 
      "name": "activation467", 
      "attr": {"act_type": "sigmoid"}, 
      "inputs": [[743, 2, 0]]
    }, 
    {
      "op": "_mul", 
      "name": "_mul279", 
      "inputs": [[745, 0, 0], [738, 0, 0]]
    }, 
    {
      "op": "Activation", 
      "name": "activation465", 
      "attr": {"act_type": "sigmoid"}, 
      "inputs": [[743, 0, 0]]
    }, 
    {
      "op": "Activation", 
      "name": "activation466", 
      "attr": {"act_type": "tanh"}, 
      "inputs": [[743, 1, 0]]
    }, 
    {
      "op": "_mul", 
      "name": "_mul280", 
      "inputs": [[747, 0, 0], [748, 0, 0]]
    }, 
    {
      "op": "elemwise_add", 
      "name": "_plus187", 
      "inputs": [[746, 0, 0], [749, 0, 0]]
    }, 
    {
      "op": "Activation", 
      "name": "activation469", 
      "attr": {"act_type": "tanh"}, 
      "inputs": [[750, 0, 0]]
    }, 
    {
      "op": "_mul", 
      "name": "_mul281", 
      "inputs": [[744, 0, 0], [751, 0, 0]]
    }, 
    {
      "op": "FullyConnected", 
      "name": "t16_l1_h2h", 
      "attr": {"num_hidden": "512"}, 
      "inputs": [[752, 0, 0], [570, 0, 0], [571, 0, 0]]
    }, 
    {
      "op": "elemwise_add", 
      "name": "_plus190", 
      "inputs": [[553, 0, 0], [753, 0, 0]]
    }, 
    {
      "op": "SliceChannel", 
      "name": "t16_l1_slice", 
      "attr": {"num_outputs": "4"}, 
      "inputs": [[754, 0, 0]]
    }, 
    {
      "op": "Activation", 
      "name": "activation478", 
      "attr": {"act_type": "sigmoid"}, 
      "inputs": [[755, 3, 0]]
    }, 
    {
      "op": "Activation", 
      "name": "activation477", 
      "attr": {"act_type": "sigmoid"}, 
      "inputs": [[755, 2, 0]]
    }, 
    {
      "op": "_mul", 
      "name": "_mul285", 
      "inputs": [[757, 0, 0], [750, 0, 0]]
    }, 
    {
      "op": "Activation", 
      "name": "activation475", 
      "attr": {"act_type": "sigmoid"}, 
      "inputs": [[755, 0, 0]]
    }, 
    {
      "op": "Activation", 
      "name": "activation476", 
      "attr": {"act_type": "tanh"}, 
      "inputs": [[755, 1, 0]]
    }, 
    {
      "op": "_mul", 
      "name": "_mul286", 
      "inputs": [[759, 0, 0], [760, 0, 0]]
    }, 
    {
      "op": "elemwise_add", 
      "name": "_plus191", 
      "inputs": [[758, 0, 0], [761, 0, 0]]
    }, 
    {
      "op": "Activation", 
      "name": "activation479", 
      "attr": {"act_type": "tanh"}, 
      "inputs": [[762, 0, 0]]
    }, 
    {
      "op": "_mul", 
      "name": "_mul287", 
      "inputs": [[756, 0, 0], [763, 0, 0]]
    }, 
    {
      "op": "FullyConnected", 
      "name": "t15_l1_h2h", 
      "attr": {"num_hidden": "512"}, 
      "inputs": [[764, 0, 0], [570, 0, 0], [571, 0, 0]]
    }, 
    {
      "op": "elemwise_add", 
      "name": "_plus194", 
      "inputs": [[552, 0, 0], [765, 0, 0]]
    }, 
    {
      "op": "SliceChannel", 
      "name": "t15_l1_slice", 
      "attr": {"num_outputs": "4"}, 
      "inputs": [[766, 0, 0]]
    }, 
    {
      "op": "Activation", 
      "name": "activation488", 
      "attr": {"act_type": "sigmoid"}, 
      "inputs": [[767, 3, 0]]
    }, 
    {
      "op": "Activation", 
      "name": "activation487", 
      "attr": {"act_type": "sigmoid"}, 
      "inputs": [[767, 2, 0]]
    }, 
    {
      "op": "_mul", 
      "name": "_mul291", 
      "inputs": [[769, 0, 0], [762, 0, 0]]
    }, 
    {
      "op": "Activation", 
      "name": "activation485", 
      "attr": {"act_type": "sigmoid"}, 
      "inputs": [[767, 0, 0]]
    }, 
    {
      "op": "Activation", 
      "name": "activation486", 
      "attr": {"act_type": "tanh"}, 
      "inputs": [[767, 1, 0]]
    }, 
    {
      "op": "_mul", 
      "name": "_mul292", 
      "inputs": [[771, 0, 0], [772, 0, 0]]
    }, 
    {
      "op": "elemwise_add", 
      "name": "_plus195", 
      "inputs": [[770, 0, 0], [773, 0, 0]]
    }, 
    {
      "op": "Activation", 
      "name": "activation489", 
      "attr": {"act_type": "tanh"}, 
      "inputs": [[774, 0, 0]]
    }, 
    {
      "op": "_mul", 
      "name": "_mul293", 
      "inputs": [[768, 0, 0], [775, 0, 0]]
    }, 
    {
      "op": "FullyConnected", 
      "name": "t14_l1_h2h", 
      "attr": {"num_hidden": "512"}, 
      "inputs": [[776, 0, 0], [570, 0, 0], [571, 0, 0]]
    }, 
    {
      "op": "elemwise_add", 
      "name": "_plus198", 
      "inputs": [[551, 0, 0], [777, 0, 0]]
    }, 
    {
      "op": "SliceChannel", 
      "name": "t14_l1_slice", 
      "attr": {"num_outputs": "4"}, 
      "inputs": [[778, 0, 0]]
    }, 
    {
      "op": "Activation", 
      "name": "activation498", 
      "attr": {"act_type": "sigmoid"}, 
      "inputs": [[779, 3, 0]]
    }, 
    {
      "op": "Activation", 
      "name": "activation497", 
      "attr": {"act_type": "sigmoid"}, 
      "inputs": [[779, 2, 0]]
    }, 
    {
      "op": "_mul", 
      "name": "_mul297", 
      "inputs": [[781, 0, 0], [774, 0, 0]]
    }, 
    {
      "op": "Activation", 
      "name": "activation495", 
      "attr": {"act_type": "sigmoid"}, 
      "inputs": [[779, 0, 0]]
    }, 
    {
      "op": "Activation", 
      "name": "activation496", 
      "attr": {"act_type": "tanh"}, 
      "inputs": [[779, 1, 0]]
    }, 
    {
      "op": "_mul", 
      "name": "_mul298", 
      "inputs": [[783, 0, 0], [784, 0, 0]]
    }, 
    {
      "op": "elemwise_add", 
      "name": "_plus199", 
      "inputs": [[782, 0, 0], [785, 0, 0]]
    }, 
    {
      "op": "Activation", 
      "name": "activation499", 
      "attr": {"act_type": "tanh"}, 
      "inputs": [[786, 0, 0]]
    }, 
    {
      "op": "_mul", 
      "name": "_mul299", 
      "inputs": [[780, 0, 0], [787, 0, 0]]
    }, 
    {
      "op": "FullyConnected", 
      "name": "t13_l1_h2h", 
      "attr": {"num_hidden": "512"}, 
      "inputs": [[788, 0, 0], [570, 0, 0], [571, 0, 0]]
    }, 
    {
      "op": "elemwise_add", 
      "name": "_plus202", 
      "inputs": [[550, 0, 0], [789, 0, 0]]
    }, 
    {
      "op": "SliceChannel", 
      "name": "t13_l1_slice", 
      "attr": {"num_outputs": "4"}, 
      "inputs": [[790, 0, 0]]
    }, 
    {
      "op": "Activation", 
      "name": "activation508", 
      "attr": {"act_type": "sigmoid"}, 
      "inputs": [[791, 3, 0]]
    }, 
    {
      "op": "Activation", 
      "name": "activation507", 
      "attr": {"act_type": "sigmoid"}, 
      "inputs": [[791, 2, 0]]
    }, 
    {
      "op": "_mul", 
      "name": "_mul303", 
      "inputs": [[793, 0, 0], [786, 0, 0]]
    }, 
    {
      "op": "Activation", 
      "name": "activation505", 
      "attr": {"act_type": "sigmoid"}, 
      "inputs": [[791, 0, 0]]
    }, 
    {
      "op": "Activation", 
      "name": "activation506", 
      "attr": {"act_type": "tanh"}, 
      "inputs": [[791, 1, 0]]
    }, 
    {
      "op": "_mul", 
      "name": "_mul304", 
      "inputs": [[795, 0, 0], [796, 0, 0]]
    }, 
    {
      "op": "elemwise_add", 
      "name": "_plus203", 
      "inputs": [[794, 0, 0], [797, 0, 0]]
    }, 
    {
      "op": "Activation", 
      "name": "activation509", 
      "attr": {"act_type": "tanh"}, 
      "inputs": [[798, 0, 0]]
    }, 
    {
      "op": "_mul", 
      "name": "_mul305", 
      "inputs": [[792, 0, 0], [799, 0, 0]]
    }, 
    {
      "op": "FullyConnected", 
      "name": "t12_l1_h2h", 
      "attr": {"num_hidden": "512"}, 
      "inputs": [[800, 0, 0], [570, 0, 0], [571, 0, 0]]
    }, 
    {
      "op": "elemwise_add", 
      "name": "_plus206", 
      "inputs": [[549, 0, 0], [801, 0, 0]]
    }, 
    {
      "op": "SliceChannel", 
      "name": "t12_l1_slice", 
      "attr": {"num_outputs": "4"}, 
      "inputs": [[802, 0, 0]]
    }, 
    {
      "op": "Activation", 
      "name": "activation518", 
      "attr": {"act_type": "sigmoid"}, 
      "inputs": [[803, 3, 0]]
    }, 
    {
      "op": "Activation", 
      "name": "activation517", 
      "attr": {"act_type": "sigmoid"}, 
      "inputs": [[803, 2, 0]]
    }, 
    {
      "op": "_mul", 
      "name": "_mul309", 
      "inputs": [[805, 0, 0], [798, 0, 0]]
    }, 
    {
      "op": "Activation", 
      "name": "activation515", 
      "attr": {"act_type": "sigmoid"}, 
      "inputs": [[803, 0, 0]]
    }, 
    {
      "op": "Activation", 
      "name": "activation516", 
      "attr": {"act_type": "tanh"}, 
      "inputs": [[803, 1, 0]]
    }, 
    {
      "op": "_mul", 
      "name": "_mul310", 
      "inputs": [[807, 0, 0], [808, 0, 0]]
    }, 
    {
      "op": "elemwise_add", 
      "name": "_plus207", 
      "inputs": [[806, 0, 0], [809, 0, 0]]
    }, 
    {
      "op": "Activation", 
      "name": "activation519", 
      "attr": {"act_type": "tanh"}, 
      "inputs": [[810, 0, 0]]
    }, 
    {
      "op": "_mul", 
      "name": "_mul311", 
      "inputs": [[804, 0, 0], [811, 0, 0]]
    }, 
    {
      "op": "FullyConnected", 
      "name": "t11_l1_h2h", 
      "attr": {"num_hidden": "512"}, 
      "inputs": [[812, 0, 0], [570, 0, 0], [571, 0, 0]]
    }, 
    {
      "op": "elemwise_add", 
      "name": "_plus210", 
      "inputs": [[548, 0, 0], [813, 0, 0]]
    }, 
    {
      "op": "SliceChannel", 
      "name": "t11_l1_slice", 
      "attr": {"num_outputs": "4"}, 
      "inputs": [[814, 0, 0]]
    }, 
    {
      "op": "Activation", 
      "name": "activation528", 
      "attr": {"act_type": "sigmoid"}, 
      "inputs": [[815, 3, 0]]
    }, 
    {
      "op": "Activation", 
      "name": "activation527", 
      "attr": {"act_type": "sigmoid"}, 
      "inputs": [[815, 2, 0]]
    }, 
    {
      "op": "_mul", 
      "name": "_mul315", 
      "inputs": [[817, 0, 0], [810, 0, 0]]
    }, 
    {
      "op": "Activation", 
      "name": "activation525", 
      "attr": {"act_type": "sigmoid"}, 
      "inputs": [[815, 0, 0]]
    }, 
    {
      "op": "Activation", 
      "name": "activation526", 
      "attr": {"act_type": "tanh"}, 
      "inputs": [[815, 1, 0]]
    }, 
    {
      "op": "_mul", 
      "name": "_mul316", 
      "inputs": [[819, 0, 0], [820, 0, 0]]
    }, 
    {
      "op": "elemwise_add", 
      "name": "_plus211", 
      "inputs": [[818, 0, 0], [821, 0, 0]]
    }, 
    {
      "op": "Activation", 
      "name": "activation529", 
      "attr": {"act_type": "tanh"}, 
      "inputs": [[822, 0, 0]]
    }, 
    {
      "op": "_mul", 
      "name": "_mul317", 
      "inputs": [[816, 0, 0], [823, 0, 0]]
    }, 
    {
      "op": "FullyConnected", 
      "name": "t10_l1_h2h", 
      "attr": {"num_hidden": "512"}, 
      "inputs": [[824, 0, 0], [570, 0, 0], [571, 0, 0]]
    }, 
    {
      "op": "elemwise_add", 
      "name": "_plus214", 
      "inputs": [[547, 0, 0], [825, 0, 0]]
    }, 
    {
      "op": "SliceChannel", 
      "name": "t10_l1_slice", 
      "attr": {"num_outputs": "4"}, 
      "inputs": [[826, 0, 0]]
    }, 
    {
      "op": "Activation", 
      "name": "activation538", 
      "attr": {"act_type": "sigmoid"}, 
      "inputs": [[827, 3, 0]]
    }, 
    {
      "op": "Activation", 
      "name": "activation537", 
      "attr": {"act_type": "sigmoid"}, 
      "inputs": [[827, 2, 0]]
    }, 
    {
      "op": "_mul", 
      "name": "_mul321", 
      "inputs": [[829, 0, 0], [822, 0, 0]]
    }, 
    {
      "op": "Activation", 
      "name": "activation535", 
      "attr": {"act_type": "sigmoid"}, 
      "inputs": [[827, 0, 0]]
    }, 
    {
      "op": "Activation", 
      "name": "activation536", 
      "attr": {"act_type": "tanh"}, 
      "inputs": [[827, 1, 0]]
    }, 
    {
      "op": "_mul", 
      "name": "_mul322", 
      "inputs": [[831, 0, 0], [832, 0, 0]]
    }, 
    {
      "op": "elemwise_add", 
      "name": "_plus215", 
      "inputs": [[830, 0, 0], [833, 0, 0]]
    }, 
    {
      "op": "Activation", 
      "name": "activation539", 
      "attr": {"act_type": "tanh"}, 
      "inputs": [[834, 0, 0]]
    }, 
    {
      "op": "_mul", 
      "name": "_mul323", 
      "inputs": [[828, 0, 0], [835, 0, 0]]
    }, 
    {
      "op": "FullyConnected", 
      "name": "t9_l1_h2h", 
      "attr": {"num_hidden": "512"}, 
      "inputs": [[836, 0, 0], [570, 0, 0], [571, 0, 0]]
    }, 
    {
      "op": "elemwise_add", 
      "name": "_plus218", 
      "inputs": [[546, 0, 0], [837, 0, 0]]
    }, 
    {
      "op": "SliceChannel", 
      "name": "t9_l1_slice", 
      "attr": {"num_outputs": "4"}, 
      "inputs": [[838, 0, 0]]
    }, 
    {
      "op": "Activation", 
      "name": "activation548", 
      "attr": {"act_type": "sigmoid"}, 
      "inputs": [[839, 3, 0]]
    }, 
    {
      "op": "Activation", 
      "name": "activation547", 
      "attr": {"act_type": "sigmoid"}, 
      "inputs": [[839, 2, 0]]
    }, 
    {
      "op": "_mul", 
      "name": "_mul327", 
      "inputs": [[841, 0, 0], [834, 0, 0]]
    }, 
    {
      "op": "Activation", 
      "name": "activation545", 
      "attr": {"act_type": "sigmoid"}, 
      "inputs": [[839, 0, 0]]
    }, 
    {
      "op": "Activation", 
      "name": "activation546", 
      "attr": {"act_type": "tanh"}, 
      "inputs": [[839, 1, 0]]
    }, 
    {
      "op": "_mul", 
      "name": "_mul328", 
      "inputs": [[843, 0, 0], [844, 0, 0]]
    }, 
    {
      "op": "elemwise_add", 
      "name": "_plus219", 
      "inputs": [[842, 0, 0], [845, 0, 0]]
    }, 
    {
      "op": "Activation", 
      "name": "activation549", 
      "attr": {"act_type": "tanh"}, 
      "inputs": [[846, 0, 0]]
    }, 
    {
      "op": "_mul", 
      "name": "_mul329", 
      "inputs": [[840, 0, 0], [847, 0, 0]]
    }, 
    {
      "op": "FullyConnected", 
      "name": "t8_l1_h2h", 
      "attr": {"num_hidden": "512"}, 
      "inputs": [[848, 0, 0], [570, 0, 0], [571, 0, 0]]
    }, 
    {
      "op": "elemwise_add", 
      "name": "_plus222", 
      "inputs": [[545, 0, 0], [849, 0, 0]]
    }, 
    {
      "op": "SliceChannel", 
      "name": "t8_l1_slice", 
      "attr": {"num_outputs": "4"}, 
      "inputs": [[850, 0, 0]]
    }, 
    {
      "op": "Activation", 
      "name": "activation558", 
      "attr": {"act_type": "sigmoid"}, 
      "inputs": [[851, 3, 0]]
    }, 
    {
      "op": "Activation", 
      "name": "activation557", 
      "attr": {"act_type": "sigmoid"}, 
      "inputs": [[851, 2, 0]]
    }, 
    {
      "op": "_mul", 
      "name": "_mul333", 
      "inputs": [[853, 0, 0], [846, 0, 0]]
    }, 
    {
      "op": "Activation", 
      "name": "activation555", 
      "attr": {"act_type": "sigmoid"}, 
      "inputs": [[851, 0, 0]]
    }, 
    {
      "op": "Activation", 
      "name": "activation556", 
      "attr": {"act_type": "tanh"}, 
      "inputs": [[851, 1, 0]]
    }, 
    {
      "op": "_mul", 
      "name": "_mul334", 
      "inputs": [[855, 0, 0], [856, 0, 0]]
    }, 
    {
      "op": "elemwise_add", 
      "name": "_plus223", 
      "inputs": [[854, 0, 0], [857, 0, 0]]
    }, 
    {
      "op": "Activation", 
      "name": "activation559", 
      "attr": {"act_type": "tanh"}, 
      "inputs": [[858, 0, 0]]
    }, 
    {
      "op": "_mul", 
      "name": "_mul335", 
      "inputs": [[852, 0, 0], [859, 0, 0]]
    }, 
    {
      "op": "FullyConnected", 
      "name": "t7_l1_h2h", 
      "attr": {"num_hidden": "512"}, 
      "inputs": [[860, 0, 0], [570, 0, 0], [571, 0, 0]]
    }, 
    {
      "op": "elemwise_add", 
      "name": "_plus226", 
      "inputs": [[544, 0, 0], [861, 0, 0]]
    }, 
    {
      "op": "SliceChannel", 
      "name": "t7_l1_slice", 
      "attr": {"num_outputs": "4"}, 
      "inputs": [[862, 0, 0]]
    }, 
    {
      "op": "Activation", 
      "name": "activation568", 
      "attr": {"act_type": "sigmoid"}, 
      "inputs": [[863, 3, 0]]
    }, 
    {
      "op": "Activation", 
      "name": "activation567", 
      "attr": {"act_type": "sigmoid"}, 
      "inputs": [[863, 2, 0]]
    }, 
    {
      "op": "_mul", 
      "name": "_mul339", 
      "inputs": [[865, 0, 0], [858, 0, 0]]
    }, 
    {
      "op": "Activation", 
      "name": "activation565", 
      "attr": {"act_type": "sigmoid"}, 
      "inputs": [[863, 0, 0]]
    }, 
    {
      "op": "Activation", 
      "name": "activation566", 
      "attr": {"act_type": "tanh"}, 
      "inputs": [[863, 1, 0]]
    }, 
    {
      "op": "_mul", 
      "name": "_mul340", 
      "inputs": [[867, 0, 0], [868, 0, 0]]
    }, 
    {
      "op": "elemwise_add", 
      "name": "_plus227", 
      "inputs": [[866, 0, 0], [869, 0, 0]]
    }, 
    {
      "op": "Activation", 
      "name": "activation569", 
      "attr": {"act_type": "tanh"}, 
      "inputs": [[870, 0, 0]]
    }, 
    {
      "op": "_mul", 
      "name": "_mul341", 
      "inputs": [[864, 0, 0], [871, 0, 0]]
    }, 
    {
      "op": "FullyConnected", 
      "name": "t6_l1_h2h", 
      "attr": {"num_hidden": "512"}, 
      "inputs": [[872, 0, 0], [570, 0, 0], [571, 0, 0]]
    }, 
    {
      "op": "elemwise_add", 
      "name": "_plus230", 
      "inputs": [[543, 0, 0], [873, 0, 0]]
    }, 
    {
      "op": "SliceChannel", 
      "name": "t6_l1_slice", 
      "attr": {"num_outputs": "4"}, 
      "inputs": [[874, 0, 0]]
    }, 
    {
      "op": "Activation", 
      "name": "activation578", 
      "attr": {"act_type": "sigmoid"}, 
      "inputs": [[875, 3, 0]]
    }, 
    {
      "op": "Activation", 
      "name": "activation577", 
      "attr": {"act_type": "sigmoid"}, 
      "inputs": [[875, 2, 0]]
    }, 
    {
      "op": "_mul", 
      "name": "_mul345", 
      "inputs": [[877, 0, 0], [870, 0, 0]]
    }, 
    {
      "op": "Activation", 
      "name": "activation575", 
      "attr": {"act_type": "sigmoid"}, 
      "inputs": [[875, 0, 0]]
    }, 
    {
      "op": "Activation", 
      "name": "activation576", 
      "attr": {"act_type": "tanh"}, 
      "inputs": [[875, 1, 0]]
    }, 
    {
      "op": "_mul", 
      "name": "_mul346", 
      "inputs": [[879, 0, 0], [880, 0, 0]]
    }, 
    {
      "op": "elemwise_add", 
      "name": "_plus231", 
      "inputs": [[878, 0, 0], [881, 0, 0]]
    }, 
    {
      "op": "Activation", 
      "name": "activation579", 
      "attr": {"act_type": "tanh"}, 
      "inputs": [[882, 0, 0]]
    }, 
    {
      "op": "_mul", 
      "name": "_mul347", 
      "inputs": [[876, 0, 0], [883, 0, 0]]
    }, 
    {
      "op": "FullyConnected", 
      "name": "t5_l1_h2h", 
      "attr": {"num_hidden": "512"}, 
      "inputs": [[884, 0, 0], [570, 0, 0], [571, 0, 0]]
    }, 
    {
      "op": "elemwise_add", 
      "name": "_plus234", 
      "inputs": [[542, 0, 0], [885, 0, 0]]
    }, 
    {
      "op": "SliceChannel", 
      "name": "t5_l1_slice", 
      "attr": {"num_outputs": "4"}, 
      "inputs": [[886, 0, 0]]
    }, 
    {
      "op": "Activation", 
      "name": "activation588", 
      "attr": {"act_type": "sigmoid"}, 
      "inputs": [[887, 3, 0]]
    }, 
    {
      "op": "Activation", 
      "name": "activation587", 
      "attr": {"act_type": "sigmoid"}, 
      "inputs": [[887, 2, 0]]
    }, 
    {
      "op": "_mul", 
      "name": "_mul351", 
      "inputs": [[889, 0, 0], [882, 0, 0]]
    }, 
    {
      "op": "Activation", 
      "name": "activation585", 
      "attr": {"act_type": "sigmoid"}, 
      "inputs": [[887, 0, 0]]
    }, 
    {
      "op": "Activation", 
      "name": "activation586", 
      "attr": {"act_type": "tanh"}, 
      "inputs": [[887, 1, 0]]
    }, 
    {
      "op": "_mul", 
      "name": "_mul352", 
      "inputs": [[891, 0, 0], [892, 0, 0]]
    }, 
    {
      "op": "elemwise_add", 
      "name": "_plus235", 
      "inputs": [[890, 0, 0], [893, 0, 0]]
    }, 
    {
      "op": "Activation", 
      "name": "activation589", 
      "attr": {"act_type": "tanh"}, 
      "inputs": [[894, 0, 0]]
    }, 
    {
      "op": "_mul", 
      "name": "_mul353", 
      "inputs": [[888, 0, 0], [895, 0, 0]]
    }, 
    {
      "op": "FullyConnected", 
      "name": "t4_l1_h2h", 
      "attr": {"num_hidden": "512"}, 
      "inputs": [[896, 0, 0], [570, 0, 0], [571, 0, 0]]
    }, 
    {
      "op": "elemwise_add", 
      "name": "_plus238", 
      "inputs": [[541, 0, 0], [897, 0, 0]]
    }, 
    {
      "op": "SliceChannel", 
      "name": "t4_l1_slice", 
      "attr": {"num_outputs": "4"}, 
      "inputs": [[898, 0, 0]]
    }, 
    {
      "op": "Activation", 
      "name": "activation598", 
      "attr": {"act_type": "sigmoid"}, 
      "inputs": [[899, 3, 0]]
    }, 
    {
      "op": "Activation", 
      "name": "activation597", 
      "attr": {"act_type": "sigmoid"}, 
      "inputs": [[899, 2, 0]]
    }, 
    {
      "op": "_mul", 
      "name": "_mul357", 
      "inputs": [[901, 0, 0], [894, 0, 0]]
    }, 
    {
      "op": "Activation", 
      "name": "activation595", 
      "attr": {"act_type": "sigmoid"}, 
      "inputs": [[899, 0, 0]]
    }, 
    {
      "op": "Activation", 
      "name": "activation596", 
      "attr": {"act_type": "tanh"}, 
      "inputs": [[899, 1, 0]]
    }, 
    {
      "op": "_mul", 
      "name": "_mul358", 
      "inputs": [[903, 0, 0], [904, 0, 0]]
    }, 
    {
      "op": "elemwise_add", 
      "name": "_plus239", 
      "inputs": [[902, 0, 0], [905, 0, 0]]
    }, 
    {
      "op": "Activation", 
      "name": "activation599", 
      "attr": {"act_type": "tanh"}, 
      "inputs": [[906, 0, 0]]
    }, 
    {
      "op": "_mul", 
      "name": "_mul359", 
      "inputs": [[900, 0, 0], [907, 0, 0]]
    }, 
    {
      "op": "FullyConnected", 
      "name": "t3_l1_h2h", 
      "attr": {"num_hidden": "512"}, 
      "inputs": [[908, 0, 0], [570, 0, 0], [571, 0, 0]]
    }, 
    {
      "op": "elemwise_add", 
      "name": "_plus242", 
      "inputs": [[540, 0, 0], [909, 0, 0]]
    }, 
    {
      "op": "SliceChannel", 
      "name": "t3_l1_slice", 
      "attr": {"num_outputs": "4"}, 
      "inputs": [[910, 0, 0]]
    }, 
    {
      "op": "Activation", 
      "name": "activation608", 
      "attr": {"act_type": "sigmoid"}, 
      "inputs": [[911, 3, 0]]
    }, 
    {
      "op": "Activation", 
      "name": "activation607", 
      "attr": {"act_type": "sigmoid"}, 
      "inputs": [[911, 2, 0]]
    }, 
    {
      "op": "_mul", 
      "name": "_mul363", 
      "inputs": [[913, 0, 0], [906, 0, 0]]
    }, 
    {
      "op": "Activation", 
      "name": "activation605", 
      "attr": {"act_type": "sigmoid"}, 
      "inputs": [[911, 0, 0]]
    }, 
    {
      "op": "Activation", 
      "name": "activation606", 
      "attr": {"act_type": "tanh"}, 
      "inputs": [[911, 1, 0]]
    }, 
    {
      "op": "_mul", 
      "name": "_mul364", 
      "inputs": [[915, 0, 0], [916, 0, 0]]
    }, 
    {
      "op": "elemwise_add", 
      "name": "_plus243", 
      "inputs": [[914, 0, 0], [917, 0, 0]]
    }, 
    {
      "op": "Activation", 
      "name": "activation609", 
      "attr": {"act_type": "tanh"}, 
      "inputs": [[918, 0, 0]]
    }, 
    {
      "op": "_mul", 
      "name": "_mul365", 
      "inputs": [[912, 0, 0], [919, 0, 0]]
    }, 
    {
      "op": "FullyConnected", 
      "name": "t2_l1_h2h", 
      "attr": {"num_hidden": "512"}, 
      "inputs": [[920, 0, 0], [570, 0, 0], [571, 0, 0]]
    }, 
    {
      "op": "elemwise_add", 
      "name": "_plus246", 
      "inputs": [[539, 0, 0], [921, 0, 0]]
    }, 
    {
      "op": "SliceChannel", 
      "name": "t2_l1_slice", 
      "attr": {"num_outputs": "4"}, 
      "inputs": [[922, 0, 0]]
    }, 
    {
      "op": "Activation", 
      "name": "activation618", 
      "attr": {"act_type": "sigmoid"}, 
      "inputs": [[923, 3, 0]]
    }, 
    {
      "op": "Activation", 
      "name": "activation617", 
      "attr": {"act_type": "sigmoid"}, 
      "inputs": [[923, 2, 0]]
    }, 
    {
      "op": "_mul", 
      "name": "_mul369", 
      "inputs": [[925, 0, 0], [918, 0, 0]]
    }, 
    {
      "op": "Activation", 
      "name": "activation615", 
      "attr": {"act_type": "sigmoid"}, 
      "inputs": [[923, 0, 0]]
    }, 
    {
      "op": "Activation", 
      "name": "activation616", 
      "attr": {"act_type": "tanh"}, 
      "inputs": [[923, 1, 0]]
    }, 
    {
      "op": "_mul", 
      "name": "_mul370", 
      "inputs": [[927, 0, 0], [928, 0, 0]]
    }, 
    {
      "op": "elemwise_add", 
      "name": "_plus247", 
      "inputs": [[926, 0, 0], [929, 0, 0]]
    }, 
    {
      "op": "Activation", 
      "name": "activation619", 
      "attr": {"act_type": "tanh"}, 
      "inputs": [[930, 0, 0]]
    }, 
    {
      "op": "_mul", 
      "name": "_mul371", 
      "inputs": [[924, 0, 0], [931, 0, 0]]
    }, 
    {
      "op": "FullyConnected", 
      "name": "t1_l1_h2h", 
      "attr": {"num_hidden": "512"}, 
      "inputs": [[932, 0, 0], [570, 0, 0], [571, 0, 0]]
    }, 
    {
      "op": "elemwise_add", 
      "name": "_plus250", 
      "inputs": [[538, 0, 0], [933, 0, 0]]
    }, 
    {
      "op": "SliceChannel", 
      "name": "t1_l1_slice", 
      "attr": {"num_outputs": "4"}, 
      "inputs": [[934, 0, 0]]
    }, 
    {
      "op": "Activation", 
      "name": "activation628", 
      "attr": {"act_type": "sigmoid"}, 
      "inputs": [[935, 3, 0]]
    }, 
    {
      "op": "Activation", 
      "name": "activation627", 
      "attr": {"act_type": "sigmoid"}, 
      "inputs": [[935, 2, 0]]
    }, 
    {
      "op": "_mul", 
      "name": "_mul375", 
      "inputs": [[937, 0, 0], [930, 0, 0]]
    }, 
    {
      "op": "Activation", 
      "name": "activation625", 
      "attr": {"act_type": "sigmoid"}, 
      "inputs": [[935, 0, 0]]
    }, 
    {
      "op": "Activation", 
      "name": "activation626", 
      "attr": {"act_type": "tanh"}, 
      "inputs": [[935, 1, 0]]
    }, 
    {
      "op": "_mul", 
      "name": "_mul376", 
      "inputs": [[939, 0, 0], [940, 0, 0]]
    }, 
    {
      "op": "elemwise_add", 
      "name": "_plus251", 
      "inputs": [[938, 0, 0], [941, 0, 0]]
    }, 
    {
      "op": "Activation", 
      "name": "activation629", 
      "attr": {"act_type": "tanh"}, 
      "inputs": [[942, 0, 0]]
    }, 
    {
      "op": "_mul", 
      "name": "_mul377", 
      "inputs": [[936, 0, 0], [943, 0, 0]]
    }, 
    {
      "op": "FullyConnected", 
      "name": "t0_l1_h2h", 
      "attr": {"num_hidden": "512"}, 
      "inputs": [[944, 0, 0], [570, 0, 0], [571, 0, 0]]
    }, 
    {
      "op": "elemwise_add", 
      "name": "_plus254", 
      "inputs": [[537, 0, 0], [945, 0, 0]]
    }, 
    {
      "op": "SliceChannel", 
      "name": "t0_l1_slice", 
      "attr": {"num_outputs": "4"}, 
      "inputs": [[946, 0, 0]]
    }, 
    {
      "op": "Activation", 
      "name": "activation638", 
      "attr": {"act_type": "sigmoid"}, 
      "inputs": [[947, 3, 0]]
    }, 
    {
      "op": "Activation", 
      "name": "activation637", 
      "attr": {"act_type": "sigmoid"}, 
      "inputs": [[947, 2, 0]]
    }, 
    {
      "op": "_mul", 
      "name": "_mul381", 
      "inputs": [[949, 0, 0], [942, 0, 0]]
    }, 
    {
      "op": "Activation", 
      "name": "activation635", 
      "attr": {"act_type": "sigmoid"}, 
      "inputs": [[947, 0, 0]]
    }, 
    {
      "op": "Activation", 
      "name": "activation636", 
      "attr": {"act_type": "tanh"}, 
      "inputs": [[947, 1, 0]]
    }, 
    {
      "op": "_mul", 
      "name": "_mul382", 
      "inputs": [[951, 0, 0], [952, 0, 0]]
    }, 
    {
      "op": "elemwise_add", 
      "name": "_plus255", 
      "inputs": [[950, 0, 0], [953, 0, 0]]
    }, 
    {
      "op": "Activation", 
      "name": "activation639", 
      "attr": {"act_type": "tanh"}, 
      "inputs": [[954, 0, 0]]
    }, 
    {
      "op": "_mul", 
      "name": "_mul383", 
      "inputs": [[948, 0, 0], [955, 0, 0]]
    }, 
    {
      "op": "Concat", 
      "name": "concat0", 
      "attr": {
        "dim": "1", 
        "num_args": "2"
      }, 
      "inputs": [[80, 0, 0], [956, 0, 0]]
    }, 
    {
      "op": "Flatten", 
      "name": "flatten1", 
      "inputs": [[41, 1, 0]]
    }, 
    {
      "op": "FullyConnected", 
      "name": "t1_l0_i2h", 
      "attr": {"num_hidden": "512"}, 
      "inputs": [[958, 0, 0], [43, 0, 0], [44, 0, 0]]
    }, 
    {
      "op": "FullyConnected", 
      "name": "t1_l0_h2h", 
      "attr": {"num_hidden": "512"}, 
      "inputs": [[61, 0, 0], [47, 0, 0], [48, 0, 0]]
    }, 
    {
      "op": "elemwise_add", 
      "name": "_plus4", 
      "inputs": [[959, 0, 0], [960, 0, 0]]
    }, 
    {
      "op": "SliceChannel", 
      "name": "t1_l0_slice", 
      "attr": {"num_outputs": "4"}, 
      "inputs": [[961, 0, 0]]
    }, 
    {
      "op": "Activation", 
      "name": "activation13", 
      "attr": {"act_type": "sigmoid"}, 
      "inputs": [[962, 3, 0]]
    }, 
    {
      "op": "Activation", 
      "name": "activation12", 
      "attr": {"act_type": "sigmoid"}, 
      "inputs": [[962, 2, 0]]
    }, 
    {
      "op": "_mul", 
      "name": "_mul6", 
      "inputs": [[964, 0, 0], [59, 0, 0]]
    }, 
    {
      "op": "Activation", 
      "name": "activation10", 
      "attr": {"act_type": "sigmoid"}, 
      "inputs": [[962, 0, 0]]
    }, 
    {
      "op": "Activation", 
      "name": "activation11", 
      "attr": {"act_type": "tanh"}, 
      "inputs": [[962, 1, 0]]
    }, 
    {
      "op": "_mul", 
      "name": "_mul7", 
      "inputs": [[966, 0, 0], [967, 0, 0]]
    }, 
    {
      "op": "elemwise_add", 
      "name": "_plus5", 
      "inputs": [[965, 0, 0], [968, 0, 0]]
    }, 
    {
      "op": "Activation", 
      "name": "activation14", 
      "attr": {"act_type": "tanh"}, 
      "inputs": [[969, 0, 0]]
    }, 
    {
      "op": "_mul", 
      "name": "_mul8", 
      "inputs": [[963, 0, 0], [970, 0, 0]]
    }, 
    {
      "op": "FullyConnected", 
      "name": "t1_l0_i2h", 
      "attr": {"num_hidden": "512"}, 
      "inputs": [[971, 0, 0], [62, 0, 0], [63, 0, 0]]
    }, 
    {
      "op": "FullyConnected", 
      "name": "t1_l0_h2h", 
      "attr": {"num_hidden": "512"}, 
      "inputs": [[80, 0, 0], [66, 0, 0], [67, 0, 0]]
    }, 
    {
      "op": "elemwise_add", 
      "name": "_plus6", 
      "inputs": [[972, 0, 0], [973, 0, 0]]
    }, 
    {
      "op": "SliceChannel", 
      "name": "t1_l0_slice", 
      "attr": {"num_outputs": "4"}, 
      "inputs": [[974, 0, 0]]
    }, 
    {
      "op": "Activation", 
      "name": "activation18", 
      "attr": {"act_type": "sigmoid"}, 
      "inputs": [[975, 3, 0]]
    }, 
    {
      "op": "Activation", 
      "name": "activation17", 
      "attr": {"act_type": "sigmoid"}, 
      "inputs": [[975, 2, 0]]
    }, 
    {
      "op": "_mul", 
      "name": "_mul9", 
      "inputs": [[977, 0, 0], [78, 0, 0]]
    }, 
    {
      "op": "Activation", 
      "name": "activation15", 
      "attr": {"act_type": "sigmoid"}, 
      "inputs": [[975, 0, 0]]
    }, 
    {
      "op": "Activation", 
      "name": "activation16", 
      "attr": {"act_type": "tanh"}, 
      "inputs": [[975, 1, 0]]
    }, 
    {
      "op": "_mul", 
      "name": "_mul10", 
      "inputs": [[979, 0, 0], [980, 0, 0]]
    }, 
    {
      "op": "elemwise_add", 
      "name": "_plus7", 
      "inputs": [[978, 0, 0], [981, 0, 0]]
    }, 
    {
      "op": "Activation", 
      "name": "activation19", 
      "attr": {"act_type": "tanh"}, 
      "inputs": [[982, 0, 0]]
    }, 
    {
      "op": "_mul", 
      "name": "_mul11", 
      "inputs": [[976, 0, 0], [983, 0, 0]]
    }, 
    {
      "op": "Concat", 
      "name": "concat1", 
      "attr": {
        "dim": "1", 
        "num_args": "2"
      }, 
      "inputs": [[984, 0, 0], [944, 0, 0]]
    }, 
    {
      "op": "Flatten", 
      "name": "flatten2", 
      "inputs": [[41, 2, 0]]
    }, 
    {
      "op": "FullyConnected", 
      "name": "t2_l0_i2h", 
      "attr": {"num_hidden": "512"}, 
      "inputs": [[986, 0, 0], [43, 0, 0], [44, 0, 0]]
    }, 
    {
      "op": "FullyConnected", 
      "name": "t2_l0_h2h", 
      "attr": {"num_hidden": "512"}, 
      "inputs": [[971, 0, 0], [47, 0, 0], [48, 0, 0]]
    }, 
    {
      "op": "elemwise_add", 
      "name": "_plus8", 
      "inputs": [[987, 0, 0], [988, 0, 0]]
    }, 
    {
      "op": "SliceChannel", 
      "name": "t2_l0_slice", 
      "attr": {"num_outputs": "4"}, 
      "inputs": [[989, 0, 0]]
    }, 
    {
      "op": "Activation", 
      "name": "activation23", 
      "attr": {"act_type": "sigmoid"}, 
      "inputs": [[990, 3, 0]]
    }, 
    {
      "op": "Activation", 
      "name": "activation22", 
      "attr": {"act_type": "sigmoid"}, 
      "inputs": [[990, 2, 0]]
    }, 
    {
      "op": "_mul", 
      "name": "_mul12", 
      "inputs": [[992, 0, 0], [969, 0, 0]]
    }, 
    {
      "op": "Activation", 
      "name": "activation20", 
      "attr": {"act_type": "sigmoid"}, 
      "inputs": [[990, 0, 0]]
    }, 
    {
      "op": "Activation", 
      "name": "activation21", 
      "attr": {"act_type": "tanh"}, 
      "inputs": [[990, 1, 0]]
    }, 
    {
      "op": "_mul", 
      "name": "_mul13", 
      "inputs": [[994, 0, 0], [995, 0, 0]]
    }, 
    {
      "op": "elemwise_add", 
      "name": "_plus9", 
      "inputs": [[993, 0, 0], [996, 0, 0]]
    }, 
    {
      "op": "Activation", 
      "name": "activation24", 
      "attr": {"act_type": "tanh"}, 
      "inputs": [[997, 0, 0]]
    }, 
    {
      "op": "_mul", 
      "name": "_mul14", 
      "inputs": [[991, 0, 0], [998, 0, 0]]
    }, 
    {
      "op": "FullyConnected", 
      "name": "t2_l0_i2h", 
      "attr": {"num_hidden": "512"}, 
      "inputs": [[999, 0, 0], [62, 0, 0], [63, 0, 0]]
    }, 
    {
      "op": "FullyConnected", 
      "name": "t2_l0_h2h", 
      "attr": {"num_hidden": "512"}, 
      "inputs": [[984, 0, 0], [66, 0, 0], [67, 0, 0]]
    }, 
    {
      "op": "elemwise_add", 
      "name": "_plus10", 
      "inputs": [[1000, 0, 0], [1001, 0, 0]]
    }, 
    {
      "op": "SliceChannel", 
      "name": "t2_l0_slice", 
      "attr": {"num_outputs": "4"}, 
      "inputs": [[1002, 0, 0]]
    }, 
    {
      "op": "Activation", 
      "name": "activation28", 
      "attr": {"act_type": "sigmoid"}, 
      "inputs": [[1003, 3, 0]]
    }, 
    {
      "op": "Activation", 
      "name": "activation27", 
      "attr": {"act_type": "sigmoid"}, 
      "inputs": [[1003, 2, 0]]
    }, 
    {
      "op": "_mul", 
      "name": "_mul15", 
      "inputs": [[1005, 0, 0], [982, 0, 0]]
    }, 
    {
      "op": "Activation", 
      "name": "activation25", 
      "attr": {"act_type": "sigmoid"}, 
      "inputs": [[1003, 0, 0]]
    }, 
    {
      "op": "Activation", 
      "name": "activation26", 
      "attr": {"act_type": "tanh"}, 
      "inputs": [[1003, 1, 0]]
    }, 
    {
      "op": "_mul", 
      "name": "_mul16", 
      "inputs": [[1007, 0, 0], [1008, 0, 0]]
    }, 
    {
      "op": "elemwise_add", 
      "name": "_plus11", 
      "inputs": [[1006, 0, 0], [1009, 0, 0]]
    }, 
    {
      "op": "Activation", 
      "name": "activation29", 
      "attr": {"act_type": "tanh"}, 
      "inputs": [[1010, 0, 0]]
    }, 
    {
      "op": "_mul", 
      "name": "_mul17", 
      "inputs": [[1004, 0, 0], [1011, 0, 0]]
    }, 
    {
      "op": "Concat", 
      "name": "concat2", 
      "attr": {
        "dim": "1", 
        "num_args": "2"
      }, 
      "inputs": [[1012, 0, 0], [932, 0, 0]]
    }, 
    {
      "op": "Flatten", 
      "name": "flatten3", 
      "inputs": [[41, 3, 0]]
    }, 
    {
      "op": "FullyConnected", 
      "name": "t3_l0_i2h", 
      "attr": {"num_hidden": "512"}, 
      "inputs": [[1014, 0, 0], [43, 0, 0], [44, 0, 0]]
    }, 
    {
      "op": "FullyConnected", 
      "name": "t3_l0_h2h", 
      "attr": {"num_hidden": "512"}, 
      "inputs": [[999, 0, 0], [47, 0, 0], [48, 0, 0]]
    }, 
    {
      "op": "elemwise_add", 
      "name": "_plus12", 
      "inputs": [[1015, 0, 0], [1016, 0, 0]]
    }, 
    {
      "op": "SliceChannel", 
      "name": "t3_l0_slice", 
      "attr": {"num_outputs": "4"}, 
      "inputs": [[1017, 0, 0]]
    }, 
    {
      "op": "Activation", 
      "name": "activation33", 
      "attr": {"act_type": "sigmoid"}, 
      "inputs": [[1018, 3, 0]]
    }, 
    {
      "op": "Activation", 
      "name": "activation32", 
      "attr": {"act_type": "sigmoid"}, 
      "inputs": [[1018, 2, 0]]
    }, 
    {
      "op": "_mul", 
      "name": "_mul18", 
      "inputs": [[1020, 0, 0], [997, 0, 0]]
    }, 
    {
      "op": "Activation", 
      "name": "activation30", 
      "attr": {"act_type": "sigmoid"}, 
      "inputs": [[1018, 0, 0]]
    }, 
    {
      "op": "Activation", 
      "name": "activation31", 
      "attr": {"act_type": "tanh"}, 
      "inputs": [[1018, 1, 0]]
    }, 
    {
      "op": "_mul", 
      "name": "_mul19", 
      "inputs": [[1022, 0, 0], [1023, 0, 0]]
    }, 
    {
      "op": "elemwise_add", 
      "name": "_plus13", 
      "inputs": [[1021, 0, 0], [1024, 0, 0]]
    }, 
    {
      "op": "Activation", 
      "name": "activation34", 
      "attr": {"act_type": "tanh"}, 
      "inputs": [[1025, 0, 0]]
    }, 
    {
      "op": "_mul", 
      "name": "_mul20", 
      "inputs": [[1019, 0, 0], [1026, 0, 0]]
    }, 
    {
      "op": "FullyConnected", 
      "name": "t3_l0_i2h", 
      "attr": {"num_hidden": "512"}, 
      "inputs": [[1027, 0, 0], [62, 0, 0], [63, 0, 0]]
    }, 
    {
      "op": "FullyConnected", 
      "name": "t3_l0_h2h", 
      "attr": {"num_hidden": "512"}, 
      "inputs": [[1012, 0, 0], [66, 0, 0], [67, 0, 0]]
    }, 
    {
      "op": "elemwise_add", 
      "name": "_plus14", 
      "inputs": [[1028, 0, 0], [1029, 0, 0]]
    }, 
    {
      "op": "SliceChannel", 
      "name": "t3_l0_slice", 
      "attr": {"num_outputs": "4"}, 
      "inputs": [[1030, 0, 0]]
    }, 
    {
      "op": "Activation", 
      "name": "activation38", 
      "attr": {"act_type": "sigmoid"}, 
      "inputs": [[1031, 3, 0]]
    }, 
    {
      "op": "Activation", 
      "name": "activation37", 
      "attr": {"act_type": "sigmoid"}, 
      "inputs": [[1031, 2, 0]]
    }, 
    {
      "op": "_mul", 
      "name": "_mul21", 
      "inputs": [[1033, 0, 0], [1010, 0, 0]]
    }, 
    {
      "op": "Activation", 
      "name": "activation35", 
      "attr": {"act_type": "sigmoid"}, 
      "inputs": [[1031, 0, 0]]
    }, 
    {
      "op": "Activation", 
      "name": "activation36", 
      "attr": {"act_type": "tanh"}, 
      "inputs": [[1031, 1, 0]]
    }, 
    {
      "op": "_mul", 
      "name": "_mul22", 
      "inputs": [[1035, 0, 0], [1036, 0, 0]]
    }, 
    {
      "op": "elemwise_add", 
      "name": "_plus15", 
      "inputs": [[1034, 0, 0], [1037, 0, 0]]
    }, 
    {
      "op": "Activation", 
      "name": "activation39", 
      "attr": {"act_type": "tanh"}, 
      "inputs": [[1038, 0, 0]]
    }, 
    {
      "op": "_mul", 
      "name": "_mul23", 
      "inputs": [[1032, 0, 0], [1039, 0, 0]]
    }, 
    {
      "op": "Concat", 
      "name": "concat3", 
      "attr": {
        "dim": "1", 
        "num_args": "2"
      }, 
      "inputs": [[1040, 0, 0], [920, 0, 0]]
    }, 
    {
      "op": "Flatten", 
      "name": "flatten4", 
      "inputs": [[41, 4, 0]]
    }, 
    {
      "op": "FullyConnected", 
      "name": "t4_l0_i2h", 
      "attr": {"num_hidden": "512"}, 
      "inputs": [[1042, 0, 0], [43, 0, 0], [44, 0, 0]]
    }, 
    {
      "op": "FullyConnected", 
      "name": "t4_l0_h2h", 
      "attr": {"num_hidden": "512"}, 
      "inputs": [[1027, 0, 0], [47, 0, 0], [48, 0, 0]]
    }, 
    {
      "op": "elemwise_add", 
      "name": "_plus16", 
      "inputs": [[1043, 0, 0], [1044, 0, 0]]
    }, 
    {
      "op": "SliceChannel", 
      "name": "t4_l0_slice", 
      "attr": {"num_outputs": "4"}, 
      "inputs": [[1045, 0, 0]]
    }, 
    {
      "op": "Activation", 
      "name": "activation43", 
      "attr": {"act_type": "sigmoid"}, 
      "inputs": [[1046, 3, 0]]
    }, 
    {
      "op": "Activation", 
      "name": "activation42", 
      "attr": {"act_type": "sigmoid"}, 
      "inputs": [[1046, 2, 0]]
    }, 
    {
      "op": "_mul", 
      "name": "_mul24", 
      "inputs": [[1048, 0, 0], [1025, 0, 0]]
    }, 
    {
      "op": "Activation", 
      "name": "activation40", 
      "attr": {"act_type": "sigmoid"}, 
      "inputs": [[1046, 0, 0]]
    }, 
    {
      "op": "Activation", 
      "name": "activation41", 
      "attr": {"act_type": "tanh"}, 
      "inputs": [[1046, 1, 0]]
    }, 
    {
      "op": "_mul", 
      "name": "_mul25", 
      "inputs": [[1050, 0, 0], [1051, 0, 0]]
    }, 
    {
      "op": "elemwise_add", 
      "name": "_plus17", 
      "inputs": [[1049, 0, 0], [1052, 0, 0]]
    }, 
    {
      "op": "Activation", 
      "name": "activation44", 
      "attr": {"act_type": "tanh"}, 
      "inputs": [[1053, 0, 0]]
    }, 
    {
      "op": "_mul", 
      "name": "_mul26", 
      "inputs": [[1047, 0, 0], [1054, 0, 0]]
    }, 
    {
      "op": "FullyConnected", 
      "name": "t4_l0_i2h", 
      "attr": {"num_hidden": "512"}, 
      "inputs": [[1055, 0, 0], [62, 0, 0], [63, 0, 0]]
    }, 
    {
      "op": "FullyConnected", 
      "name": "t4_l0_h2h", 
      "attr": {"num_hidden": "512"}, 
      "inputs": [[1040, 0, 0], [66, 0, 0], [67, 0, 0]]
    }, 
    {
      "op": "elemwise_add", 
      "name": "_plus18", 
      "inputs": [[1056, 0, 0], [1057, 0, 0]]
    }, 
    {
      "op": "SliceChannel", 
      "name": "t4_l0_slice", 
      "attr": {"num_outputs": "4"}, 
      "inputs": [[1058, 0, 0]]
    }, 
    {
      "op": "Activation", 
      "name": "activation48", 
      "attr": {"act_type": "sigmoid"}, 
      "inputs": [[1059, 3, 0]]
    }, 
    {
      "op": "Activation", 
      "name": "activation47", 
      "attr": {"act_type": "sigmoid"}, 
      "inputs": [[1059, 2, 0]]
    }, 
    {
      "op": "_mul", 
      "name": "_mul27", 
      "inputs": [[1061, 0, 0], [1038, 0, 0]]
    }, 
    {
      "op": "Activation", 
      "name": "activation45", 
      "attr": {"act_type": "sigmoid"}, 
      "inputs": [[1059, 0, 0]]
    }, 
    {
      "op": "Activation", 
      "name": "activation46", 
      "attr": {"act_type": "tanh"}, 
      "inputs": [[1059, 1, 0]]
    }, 
    {
      "op": "_mul", 
      "name": "_mul28", 
      "inputs": [[1063, 0, 0], [1064, 0, 0]]
    }, 
    {
      "op": "elemwise_add", 
      "name": "_plus19", 
      "inputs": [[1062, 0, 0], [1065, 0, 0]]
    }, 
    {
      "op": "Activation", 
      "name": "activation49", 
      "attr": {"act_type": "tanh"}, 
      "inputs": [[1066, 0, 0]]
    }, 
    {
      "op": "_mul", 
      "name": "_mul29", 
      "inputs": [[1060, 0, 0], [1067, 0, 0]]
    }, 
    {
      "op": "Concat", 
      "name": "concat4", 
      "attr": {
        "dim": "1", 
        "num_args": "2"
      }, 
      "inputs": [[1068, 0, 0], [908, 0, 0]]
    }, 
    {
      "op": "Flatten", 
      "name": "flatten5", 
      "inputs": [[41, 5, 0]]
    }, 
    {
      "op": "FullyConnected", 
      "name": "t5_l0_i2h", 
      "attr": {"num_hidden": "512"}, 
      "inputs": [[1070, 0, 0], [43, 0, 0], [44, 0, 0]]
    }, 
    {
      "op": "FullyConnected", 
      "name": "t5_l0_h2h", 
      "attr": {"num_hidden": "512"}, 
      "inputs": [[1055, 0, 0], [47, 0, 0], [48, 0, 0]]
    }, 
    {
      "op": "elemwise_add", 
      "name": "_plus20", 
      "inputs": [[1071, 0, 0], [1072, 0, 0]]
    }, 
    {
      "op": "SliceChannel", 
      "name": "t5_l0_slice", 
      "attr": {"num_outputs": "4"}, 
      "inputs": [[1073, 0, 0]]
    }, 
    {
      "op": "Activation", 
      "name": "activation53", 
      "attr": {"act_type": "sigmoid"}, 
      "inputs": [[1074, 3, 0]]
    }, 
    {
      "op": "Activation", 
      "name": "activation52", 
      "attr": {"act_type": "sigmoid"}, 
      "inputs": [[1074, 2, 0]]
    }, 
    {
      "op": "_mul", 
      "name": "_mul30", 
      "inputs": [[1076, 0, 0], [1053, 0, 0]]
    }, 
    {
      "op": "Activation", 
      "name": "activation50", 
      "attr": {"act_type": "sigmoid"}, 
      "inputs": [[1074, 0, 0]]
    }, 
    {
      "op": "Activation", 
      "name": "activation51", 
      "attr": {"act_type": "tanh"}, 
      "inputs": [[1074, 1, 0]]
    }, 
    {
      "op": "_mul", 
      "name": "_mul31", 
      "inputs": [[1078, 0, 0], [1079, 0, 0]]
    }, 
    {
      "op": "elemwise_add", 
      "name": "_plus21", 
      "inputs": [[1077, 0, 0], [1080, 0, 0]]
    }, 
    {
      "op": "Activation", 
      "name": "activation54", 
      "attr": {"act_type": "tanh"}, 
      "inputs": [[1081, 0, 0]]
    }, 
    {
      "op": "_mul", 
      "name": "_mul32", 
      "inputs": [[1075, 0, 0], [1082, 0, 0]]
    }, 
    {
      "op": "FullyConnected", 
      "name": "t5_l0_i2h", 
      "attr": {"num_hidden": "512"}, 
      "inputs": [[1083, 0, 0], [62, 0, 0], [63, 0, 0]]
    }, 
    {
      "op": "FullyConnected", 
      "name": "t5_l0_h2h", 
      "attr": {"num_hidden": "512"}, 
      "inputs": [[1068, 0, 0], [66, 0, 0], [67, 0, 0]]
    }, 
    {
      "op": "elemwise_add", 
      "name": "_plus22", 
      "inputs": [[1084, 0, 0], [1085, 0, 0]]
    }, 
    {
      "op": "SliceChannel", 
      "name": "t5_l0_slice", 
      "attr": {"num_outputs": "4"}, 
      "inputs": [[1086, 0, 0]]
    }, 
    {
      "op": "Activation", 
      "name": "activation58", 
      "attr": {"act_type": "sigmoid"}, 
      "inputs": [[1087, 3, 0]]
    }, 
    {
      "op": "Activation", 
      "name": "activation57", 
      "attr": {"act_type": "sigmoid"}, 
      "inputs": [[1087, 2, 0]]
    }, 
    {
      "op": "_mul", 
      "name": "_mul33", 
      "inputs": [[1089, 0, 0], [1066, 0, 0]]
    }, 
    {
      "op": "Activation", 
      "name": "activation55", 
      "attr": {"act_type": "sigmoid"}, 
      "inputs": [[1087, 0, 0]]
    }, 
    {
      "op": "Activation", 
      "name": "activation56", 
      "attr": {"act_type": "tanh"}, 
      "inputs": [[1087, 1, 0]]
    }, 
    {
      "op": "_mul", 
      "name": "_mul34", 
      "inputs": [[1091, 0, 0], [1092, 0, 0]]
    }, 
    {
      "op": "elemwise_add", 
      "name": "_plus23", 
      "inputs": [[1090, 0, 0], [1093, 0, 0]]
    }, 
    {
      "op": "Activation", 
      "name": "activation59", 
      "attr": {"act_type": "tanh"}, 
      "inputs": [[1094, 0, 0]]
    }, 
    {
      "op": "_mul", 
      "name": "_mul35", 
      "inputs": [[1088, 0, 0], [1095, 0, 0]]
    }, 
    {
      "op": "Concat", 
      "name": "concat5", 
      "attr": {
        "dim": "1", 
        "num_args": "2"
      }, 
      "inputs": [[1096, 0, 0], [896, 0, 0]]
    }, 
    {
      "op": "Flatten", 
      "name": "flatten6", 
      "inputs": [[41, 6, 0]]
    }, 
    {
      "op": "FullyConnected", 
      "name": "t6_l0_i2h", 
      "attr": {"num_hidden": "512"}, 
      "inputs": [[1098, 0, 0], [43, 0, 0], [44, 0, 0]]
    }, 
    {
      "op": "FullyConnected", 
      "name": "t6_l0_h2h", 
      "attr": {"num_hidden": "512"}, 
      "inputs": [[1083, 0, 0], [47, 0, 0], [48, 0, 0]]
    }, 
    {
      "op": "elemwise_add", 
      "name": "_plus24", 
      "inputs": [[1099, 0, 0], [1100, 0, 0]]
    }, 
    {
      "op": "SliceChannel", 
      "name": "t6_l0_slice", 
      "attr": {"num_outputs": "4"}, 
      "inputs": [[1101, 0, 0]]
    }, 
    {
      "op": "Activation", 
      "name": "activation63", 
      "attr": {"act_type": "sigmoid"}, 
      "inputs": [[1102, 3, 0]]
    }, 
    {
      "op": "Activation", 
      "name": "activation62", 
      "attr": {"act_type": "sigmoid"}, 
      "inputs": [[1102, 2, 0]]
    }, 
    {
      "op": "_mul", 
      "name": "_mul36", 
      "inputs": [[1104, 0, 0], [1081, 0, 0]]
    }, 
    {
      "op": "Activation", 
      "name": "activation60", 
      "attr": {"act_type": "sigmoid"}, 
      "inputs": [[1102, 0, 0]]
    }, 
    {
      "op": "Activation", 
      "name": "activation61", 
      "attr": {"act_type": "tanh"}, 
      "inputs": [[1102, 1, 0]]
    }, 
    {
      "op": "_mul", 
      "name": "_mul37", 
      "inputs": [[1106, 0, 0], [1107, 0, 0]]
    }, 
    {
      "op": "elemwise_add", 
      "name": "_plus25", 
      "inputs": [[1105, 0, 0], [1108, 0, 0]]
    }, 
    {
      "op": "Activation", 
      "name": "activation64", 
      "attr": {"act_type": "tanh"}, 
      "inputs": [[1109, 0, 0]]
    }, 
    {
      "op": "_mul", 
      "name": "_mul38", 
      "inputs": [[1103, 0, 0], [1110, 0, 0]]
    }, 
    {
      "op": "FullyConnected", 
      "name": "t6_l0_i2h", 
      "attr": {"num_hidden": "512"}, 
      "inputs": [[1111, 0, 0], [62, 0, 0], [63, 0, 0]]
    }, 
    {
      "op": "FullyConnected", 
      "name": "t6_l0_h2h", 
      "attr": {"num_hidden": "512"}, 
      "inputs": [[1096, 0, 0], [66, 0, 0], [67, 0, 0]]
    }, 
    {
      "op": "elemwise_add", 
      "name": "_plus26", 
      "inputs": [[1112, 0, 0], [1113, 0, 0]]
    }, 
    {
      "op": "SliceChannel", 
      "name": "t6_l0_slice", 
      "attr": {"num_outputs": "4"}, 
      "inputs": [[1114, 0, 0]]
    }, 
    {
      "op": "Activation", 
      "name": "activation68", 
      "attr": {"act_type": "sigmoid"}, 
      "inputs": [[1115, 3, 0]]
    }, 
    {
      "op": "Activation", 
      "name": "activation67", 
      "attr": {"act_type": "sigmoid"}, 
      "inputs": [[1115, 2, 0]]
    }, 
    {
      "op": "_mul", 
      "name": "_mul39", 
      "inputs": [[1117, 0, 0], [1094, 0, 0]]
    }, 
    {
      "op": "Activation", 
      "name": "activation65", 
      "attr": {"act_type": "sigmoid"}, 
      "inputs": [[1115, 0, 0]]
    }, 
    {
      "op": "Activation", 
      "name": "activation66", 
      "attr": {"act_type": "tanh"}, 
      "inputs": [[1115, 1, 0]]
    }, 
    {
      "op": "_mul", 
      "name": "_mul40", 
      "inputs": [[1119, 0, 0], [1120, 0, 0]]
    }, 
    {
      "op": "elemwise_add", 
      "name": "_plus27", 
      "inputs": [[1118, 0, 0], [1121, 0, 0]]
    }, 
    {
      "op": "Activation", 
      "name": "activation69", 
      "attr": {"act_type": "tanh"}, 
      "inputs": [[1122, 0, 0]]
    }, 
    {
      "op": "_mul", 
      "name": "_mul41", 
      "inputs": [[1116, 0, 0], [1123, 0, 0]]
    }, 
    {
      "op": "Concat", 
      "name": "concat6", 
      "attr": {
        "dim": "1", 
        "num_args": "2"
      }, 
      "inputs": [[1124, 0, 0], [884, 0, 0]]
    }, 
    {
      "op": "Flatten", 
      "name": "flatten7", 
      "inputs": [[41, 7, 0]]
    }, 
    {
      "op": "FullyConnected", 
      "name": "t7_l0_i2h", 
      "attr": {"num_hidden": "512"}, 
      "inputs": [[1126, 0, 0], [43, 0, 0], [44, 0, 0]]
    }, 
    {
      "op": "FullyConnected", 
      "name": "t7_l0_h2h", 
      "attr": {"num_hidden": "512"}, 
      "inputs": [[1111, 0, 0], [47, 0, 0], [48, 0, 0]]
    }, 
    {
      "op": "elemwise_add", 
      "name": "_plus28", 
      "inputs": [[1127, 0, 0], [1128, 0, 0]]
    }, 
    {
      "op": "SliceChannel", 
      "name": "t7_l0_slice", 
      "attr": {"num_outputs": "4"}, 
      "inputs": [[1129, 0, 0]]
    }, 
    {
      "op": "Activation", 
      "name": "activation73", 
      "attr": {"act_type": "sigmoid"}, 
      "inputs": [[1130, 3, 0]]
    }, 
    {
      "op": "Activation", 
      "name": "activation72", 
      "attr": {"act_type": "sigmoid"}, 
      "inputs": [[1130, 2, 0]]
    }, 
    {
      "op": "_mul", 
      "name": "_mul42", 
      "inputs": [[1132, 0, 0], [1109, 0, 0]]
    }, 
    {
      "op": "Activation", 
      "name": "activation70", 
      "attr": {"act_type": "sigmoid"}, 
      "inputs": [[1130, 0, 0]]
    }, 
    {
      "op": "Activation", 
      "name": "activation71", 
      "attr": {"act_type": "tanh"}, 
      "inputs": [[1130, 1, 0]]
    }, 
    {
      "op": "_mul", 
      "name": "_mul43", 
      "inputs": [[1134, 0, 0], [1135, 0, 0]]
    }, 
    {
      "op": "elemwise_add", 
      "name": "_plus29", 
      "inputs": [[1133, 0, 0], [1136, 0, 0]]
    }, 
    {
      "op": "Activation", 
      "name": "activation74", 
      "attr": {"act_type": "tanh"}, 
      "inputs": [[1137, 0, 0]]
    }, 
    {
      "op": "_mul", 
      "name": "_mul44", 
      "inputs": [[1131, 0, 0], [1138, 0, 0]]
    }, 
    {
      "op": "FullyConnected", 
      "name": "t7_l0_i2h", 
      "attr": {"num_hidden": "512"}, 
      "inputs": [[1139, 0, 0], [62, 0, 0], [63, 0, 0]]
    }, 
    {
…
      "op": "_mul", 
      "name": "_mul146", 
      "inputs": [[1607, 0, 0], [1614, 0, 0]]
    }, 
    {
      "op": "FullyConnected", 
      "name": "t24_l0_i2h", 
      "attr": {"num_hidden": "512"}, 
      "inputs": [[1615, 0, 0], [62, 0, 0], [63, 0, 0]]
    }, 
    {
      "op": "FullyConnected", 
      "name": "t24_l0_h2h", 
      "attr": {"num_hidden": "512"}, 
      "inputs": [[1600, 0, 0], [66, 0, 0], [67, 0, 0]]
    }, 
    {
      "op": "elemwise_add", 
      "name": "_plus98", 
      "inputs": [[1616, 0, 0], [1617, 0, 0]]
    }, 
    {
      "op": "SliceChannel", 
      "name": "t24_l0_slice", 
      "attr": {"num_outputs": "4"}, 
      "inputs": [[1618, 0, 0]]
    }, 
    {
      "op": "Activation", 
      "name": "activation248", 
      "attr": {"act_type": "sigmoid"}, 
      "inputs": [[1619, 3, 0]]
    }, 
    {
      "op": "Activation", 
      "name": "activation247", 
      "attr": {"act_type": "sigmoid"}, 
      "inputs": [[1619, 2, 0]]
    }, 
    {
      "op": "_mul", 
      "name": "_mul147", 
      "inputs": [[1621, 0, 0], [1598, 0, 0]]
    }, 
    {
      "op": "Activation", 
      "name": "activation245", 
      "attr": {"act_type": "sigmoid"}, 
      "inputs": [[1619, 0, 0]]
    }, 
    {
      "op": "Activation", 
      "name": "activation246", 
      "attr": {"act_type": "tanh"}, 
      "inputs": [[1619, 1, 0]]
    }, 
    {
      "op": "_mul", 
      "name": "_mul148", 
      "inputs": [[1623, 0, 0], [1624, 0, 0]]
    }, 
    {
      "op": "elemwise_add", 
      "name": "_plus99", 
      "inputs": [[1622, 0, 0], [1625, 0, 0]]
    }, 
    {
      "op": "Activation", 
      "name": "activation249", 
      "attr": {"act_type": "tanh"}, 
      "inputs": [[1626, 0, 0]]
    }, 
    {
      "op": "_mul", 
      "name": "_mul149", 
      "inputs": [[1620, 0, 0], [1627, 0, 0]]
    }, 
    {
      "op": "Concat", 
      "name": "concat24", 
      "attr": {
        "dim": "1", 
        "num_args": "2"
      }, 
      "inputs": [[1628, 0, 0], [668, 0, 0]]
    }, 
    {
      "op": "Flatten", 
      "name": "flatten25", 
      "inputs": [[41, 25, 0]]
    }, 
    {
      "op": "FullyConnected", 
      "name": "t25_l0_i2h", 
      "attr": {"num_hidden": "512"}, 
      "inputs": [[1630, 0, 0], [43, 0, 0], [44, 0, 0]]
    }, 
    {
      "op": "FullyConnected", 
      "name": "t25_l0_h2h", 
      "attr": {"num_hidden": "512"}, 
      "inputs": [[1615, 0, 0], [47, 0, 0], [48, 0, 0]]
    }, 
    {
      "op": "elemwise_add", 
      "name": "_plus100", 
      "inputs": [[1631, 0, 0], [1632, 0, 0]]
    }, 
    {
      "op": "SliceChannel", 
      "name": "t25_l0_slice", 
      "attr": {"num_outputs": "4"}, 
      "inputs": [[1633, 0, 0]]
    }, 
    {
      "op": "Activation", 
      "name": "activation253", 
      "attr": {"act_type": "sigmoid"}, 
      "inputs": [[1634, 3, 0]]
    }, 
    {
      "op": "Activation", 
      "name": "activation252", 
      "attr": {"act_type": "sigmoid"}, 
      "inputs": [[1634, 2, 0]]
    }, 
    {
      "op": "_mul", 
      "name": "_mul150", 
      "inputs": [[1636, 0, 0], [1613, 0, 0]]
    }, 
    {
      "op": "Activation", 
      "name": "activation250", 
      "attr": {"act_type": "sigmoid"}, 
      "inputs": [[1634, 0, 0]]
    }, 
    {
      "op": "Activation", 
      "name": "activation251", 
      "attr": {"act_type": "tanh"}, 
      "inputs": [[1634, 1, 0]]
    }, 
    {
      "op": "_mul", 
      "name": "_mul151", 
      "inputs": [[1638, 0, 0], [1639, 0, 0]]
    }, 
    {
      "op": "elemwise_add", 
      "name": "_plus101", 
      "inputs": [[1637, 0, 0], [1640, 0, 0]]
    }, 
    {
      "op": "Activation", 
      "name": "activation254", 
      "attr": {"act_type": "tanh"}, 
      "inputs": [[1641, 0, 0]]
    }, 
    {
      "op": "_mul", 
      "name": "_mul152", 
      "inputs": [[1635, 0, 0], [1642, 0, 0]]
    }, 
    {
      "op": "FullyConnected", 
      "name": "t25_l0_i2h", 
      "attr": {"num_hidden": "512"}, 
      "inputs": [[1643, 0, 0], [62, 0, 0], [63, 0, 0]]
    }, 
    {
      "op": "FullyConnected", 
      "name": "t25_l0_h2h", 
      "attr": {"num_hidden": "512"}, 
      "inputs": [[1628, 0, 0], [66, 0, 0], [67, 0, 0]]
    }, 
    {
      "op": "elemwise_add", 
      "name": "_plus102", 
      "inputs": [[1644, 0, 0], [1645, 0, 0]]
    }, 
    {
      "op": "SliceChannel", 
      "name": "t25_l0_slice", 
      "attr": {"num_outputs": "4"}, 
      "inputs": [[1646, 0, 0]]
    }, 
    {
      "op": "Activation", 
      "name": "activation258", 
      "attr": {"act_type": "sigmoid"}, 
      "inputs": [[1647, 3, 0]]
    }, 
    {
      "op": "Activation", 
      "name": "activation257", 
      "attr": {"act_type": "sigmoid"}, 
      "inputs": [[1647, 2, 0]]
    }, 
    {
      "op": "_mul", 
      "name": "_mul153", 
      "inputs": [[1649, 0, 0], [1626, 0, 0]]
    }, 
    {
      "op": "Activation", 
      "name": "activation255", 
      "attr": {"act_type": "sigmoid"}, 
      "inputs": [[1647, 0, 0]]
    }, 
    {
      "op": "Activation", 
      "name": "activation256", 
      "attr": {"act_type": "tanh"}, 
      "inputs": [[1647, 1, 0]]
    }, 
    {
      "op": "_mul", 
      "name": "_mul154", 
      "inputs": [[1651, 0, 0], [1652, 0, 0]]
    }, 
    {
      "op": "elemwise_add", 
      "name": "_plus103", 
      "inputs": [[1650, 0, 0], [1653, 0, 0]]
    }, 
    {
      "op": "Activation", 
      "name": "activation259", 
      "attr": {"act_type": "tanh"}, 
      "inputs": [[1654, 0, 0]]
    }, 
    {
      "op": "_mul", 
      "name": "_mul155", 
      "inputs": [[1648, 0, 0], [1655, 0, 0]]
    }, 
    {
      "op": "Concat", 
      "name": "concat25", 
      "attr": {
        "dim": "1", 
        "num_args": "2"
      }, 
      "inputs": [[1656, 0, 0], [656, 0, 0]]
    }, 
    {
      "op": "Flatten", 
      "name": "flatten26", 
      "inputs": [[41, 26, 0]]
    }, 
    {
      "op": "FullyConnected", 
      "name": "t26_l0_i2h", 
      "attr": {"num_hidden": "512"}, 
      "inputs": [[1658, 0, 0], [43, 0, 0], [44, 0, 0]]
    }, 
    {
      "op": "FullyConnected", 
      "name": "t26_l0_h2h", 
      "attr": {"num_hidden": "512"}, 
      "inputs": [[1643, 0, 0], [47, 0, 0], [48, 0, 0]]
    }, 
    {
      "op": "elemwise_add", 
      "name": "_plus104", 
      "inputs": [[1659, 0, 0], [1660, 0, 0]]
    }, 
    {
      "op": "SliceChannel", 
      "name": "t26_l0_slice", 
      "attr": {"num_outputs": "4"}, 
      "inputs": [[1661, 0, 0]]
    }, 
    {
      "op": "Activation", 
      "name": "activation263", 
      "attr": {"act_type": "sigmoid"}, 
      "inputs": [[1662, 3, 0]]
    }, 
    {
      "op": "Activation", 
      "name": "activation262", 
      "attr": {"act_type": "sigmoid"}, 
      "inputs": [[1662, 2, 0]]
    }, 
    {
      "op": "_mul", 
      "name": "_mul156", 
      "inputs": [[1664, 0, 0], [1641, 0, 0]]
    }, 
    {
      "op": "Activation", 
      "name": "activation260", 
      "attr": {"act_type": "sigmoid"}, 
      "inputs": [[1662, 0, 0]]
    }, 
    {
      "op": "Activation", 
      "name": "activation261", 
      "attr": {"act_type": "tanh"}, 
      "inputs": [[1662, 1, 0]]
    }, 
    {
      "op": "_mul", 
      "name": "_mul157", 
      "inputs": [[1666, 0, 0], [1667, 0, 0]]
    }, 
    {
      "op": "elemwise_add", 
      "name": "_plus105", 
      "inputs": [[1665, 0, 0], [1668, 0, 0]]
    }, 
    {
      "op": "Activation", 
      "name": "activation264", 
      "attr": {"act_type": "tanh"}, 
      "inputs": [[1669, 0, 0]]
    }, 
    {
      "op": "_mul", 
      "name": "_mul158", 
      "inputs": [[1663, 0, 0], [1670, 0, 0]]
    }, 
    {
      "op": "FullyConnected", 
      "name": "t26_l0_i2h", 
      "attr": {"num_hidden": "512"}, 
      "inputs": [[1671, 0, 0], [62, 0, 0], [63, 0, 0]]
    }, 
    {
      "op": "FullyConnected", 
      "name": "t26_l0_h2h", 
      "attr": {"num_hidden": "512"}, 
      "inputs": [[1656, 0, 0], [66, 0, 0], [67, 0, 0]]
    }, 
    {
      "op": "elemwise_add", 
      "name": "_plus106", 
      "inputs": [[1672, 0, 0], [1673, 0, 0]]
    }, 
    {
      "op": "SliceChannel", 
      "name": "t26_l0_slice", 
      "attr": {"num_outputs": "4"}, 
      "inputs": [[1674, 0, 0]]
    }, 
    {
      "op": "Activation", 
      "name": "activation268", 
      "attr": {"act_type": "sigmoid"}, 
      "inputs": [[1675, 3, 0]]
    }, 
    {
      "op": "Activation", 
      "name": "activation267", 
      "attr": {"act_type": "sigmoid"}, 
      "inputs": [[1675, 2, 0]]
    }, 
    {
      "op": "_mul", 
      "name": "_mul159", 
      "inputs": [[1677, 0, 0], [1654, 0, 0]]
    }, 
    {
      "op": "Activation", 
      "name": "activation265", 
      "attr": {"act_type": "sigmoid"}, 
      "inputs": [[1675, 0, 0]]
    }, 
    {
      "op": "Activation", 
      "name": "activation266", 
      "attr": {"act_type": "tanh"}, 
      "inputs": [[1675, 1, 0]]
    }, 
    {
      "op": "_mul", 
      "name": "_mul160", 
      "inputs": [[1679, 0, 0], [1680, 0, 0]]
    }, 
    {
      "op": "elemwise_add", 
      "name": "_plus107", 
      "inputs": [[1678, 0, 0], [1681, 0, 0]]
    }, 
    {
      "op": "Activation", 
      "name": "activation269", 
      "attr": {"act_type": "tanh"}, 
      "inputs": [[1682, 0, 0]]
    }, 
    {
      "op": "_mul", 
      "name": "_mul161", 
      "inputs": [[1676, 0, 0], [1683, 0, 0]]
    }, 
    {
      "op": "Concat", 
      "name": "concat26", 
      "attr": {
        "dim": "1", 
        "num_args": "2"
      }, 
      "inputs": [[1684, 0, 0], [644, 0, 0]]
    }, 
    {
      "op": "Flatten", 
      "name": "flatten27", 
      "inputs": [[41, 27, 0]]
    }, 
    {
      "op": "FullyConnected", 
      "name": "t27_l0_i2h", 
      "attr": {"num_hidden": "512"}, 
      "inputs": [[1686, 0, 0], [43, 0, 0], [44, 0, 0]]
    }, 
    {
      "op": "FullyConnected", 
      "name": "t27_l0_h2h", 
      "attr": {"num_hidden": "512"}, 
      "inputs": [[1671, 0, 0], [47, 0, 0], [48, 0, 0]]
    }, 
    {
      "op": "elemwise_add", 
      "name": "_plus108", 
      "inputs": [[1687, 0, 0], [1688, 0, 0]]
    }, 
    {
      "op": "SliceChannel", 
      "name": "t27_l0_slice", 
      "attr": {"num_outputs": "4"}, 
      "inputs": [[1689, 0, 0]]
    }, 
    {
      "op": "Activation", 
      "name": "activation273", 
      "attr": {"act_type": "sigmoid"}, 
      "inputs": [[1690, 3, 0]]
    }, 
    {
      "op": "Activation", 
      "name": "activation272", 
      "attr": {"act_type": "sigmoid"}, 
      "inputs": [[1690, 2, 0]]
    }, 
    {
      "op": "_mul", 
      "name": "_mul162", 
      "inputs": [[1692, 0, 0], [1669, 0, 0]]
    }, 
    {
      "op": "Activation", 
      "name": "activation270", 
      "attr": {"act_type": "sigmoid"}, 
      "inputs": [[1690, 0, 0]]
    }, 
    {
      "op": "Activation", 
      "name": "activation271", 
      "attr": {"act_type": "tanh"}, 
      "inputs": [[1690, 1, 0]]
    }, 
    {
      "op": "_mul", 
      "name": "_mul163", 
      "inputs": [[1694, 0, 0], [1695, 0, 0]]
    }, 
    {
      "op": "elemwise_add", 
      "name": "_plus109", 
      "inputs": [[1693, 0, 0], [1696, 0, 0]]
    }, 
    {
      "op": "Activation", 
      "name": "activation274", 
      "attr": {"act_type": "tanh"}, 
      "inputs": [[1697, 0, 0]]
    }, 
    {
      "op": "_mul", 
      "name": "_mul164", 
      "inputs": [[1691, 0, 0], [1698, 0, 0]]
    }, 
    {
      "op": "FullyConnected", 
      "name": "t27_l0_i2h", 
      "attr": {"num_hidden": "512"}, 
      "inputs": [[1699, 0, 0], [62, 0, 0], [63, 0, 0]]
    }, 
    {
      "op": "FullyConnected", 
      "name": "t27_l0_h2h", 
      "attr": {"num_hidden": "512"}, 
      "inputs": [[1684, 0, 0], [66, 0, 0], [67, 0, 0]]
    }, 
    {
      "op": "elemwise_add", 
      "name": "_plus110", 
      "inputs": [[1700, 0, 0], [1701, 0, 0]]
    }, 
    {
      "op": "SliceChannel", 
      "name": "t27_l0_slice", 
      "attr": {"num_outputs": "4"}, 
      "inputs": [[1702, 0, 0]]
    }, 
    {
      "op": "Activation", 
      "name": "activation278", 
      "attr": {"act_type": "sigmoid"}, 
      "inputs": [[1703, 3, 0]]
    }, 
    {
      "op": "Activation", 
      "name": "activation277", 
      "attr": {"act_type": "sigmoid"}, 
      "inputs": [[1703, 2, 0]]
    }, 
    {
      "op": "_mul", 
      "name": "_mul165", 
      "inputs": [[1705, 0, 0], [1682, 0, 0]]
    }, 
    {
      "op": "Activation", 
      "name": "activation275", 
      "attr": {"act_type": "sigmoid"}, 
      "inputs": [[1703, 0, 0]]
    }, 
    {
      "op": "Activation", 
      "name": "activation276", 
      "attr": {"act_type": "tanh"}, 
      "inputs": [[1703, 1, 0]]
    }, 
    {
      "op": "_mul", 
      "name": "_mul166", 
      "inputs": [[1707, 0, 0], [1708, 0, 0]]
    }, 
    {
      "op": "elemwise_add", 
      "name": "_plus111", 
      "inputs": [[1706, 0, 0], [1709, 0, 0]]
    }, 
    {
      "op": "Activation", 
      "name": "activation279", 
      "attr": {"act_type": "tanh"}, 
      "inputs": [[1710, 0, 0]]
    }, 
    {
      "op": "_mul", 
      "name": "_mul167", 
      "inputs": [[1704, 0, 0], [1711, 0, 0]]
    }, 
    {
      "op": "Concat", 
      "name": "concat27", 
      "attr": {
        "dim": "1", 
        "num_args": "2"
      }, 
      "inputs": [[1712, 0, 0], [632, 0, 0]]
    }, 
    {
      "op": "Flatten", 
      "name": "flatten28", 
      "inputs": [[41, 28, 0]]
    }, 
    {
      "op": "FullyConnected", 
      "name": "t28_l0_i2h", 
      "attr": {"num_hidden": "512"}, 
      "inputs": [[1714, 0, 0], [43, 0, 0], [44, 0, 0]]
    }, 
    {
      "op": "FullyConnected", 
      "name": "t28_l0_h2h", 
      "attr": {"num_hidden": "512"}, 
      "inputs": [[1699, 0, 0], [47, 0, 0], [48, 0, 0]]
    }, 
    {
      "op": "elemwise_add", 
      "name": "_plus112", 
      "inputs": [[1715, 0, 0], [1716, 0, 0]]
    }, 
    {
      "op": "SliceChannel", 
      "name": "t28_l0_slice", 
      "attr": {"num_outputs": "4"}, 
      "inputs": [[1717, 0, 0]]
    }, 
    {
      "op": "Activation", 
      "name": "activation283", 
      "attr": {"act_type": "sigmoid"}, 
      "inputs": [[1718, 3, 0]]
    }, 
    {
      "op": "Activation", 
      "name": "activation282", 
      "attr": {"act_type": "sigmoid"}, 
      "inputs": [[1718, 2, 0]]
    }, 
    {
      "op": "_mul", 
      "name": "_mul168", 
      "inputs": [[1720, 0, 0], [1697, 0, 0]]
    }, 
    {
      "op": "Activation", 
      "name": "activation280", 
      "attr": {"act_type": "sigmoid"}, 
      "inputs": [[1718, 0, 0]]
    }, 
    {
      "op": "Activation", 
      "name": "activation281", 
      "attr": {"act_type": "tanh"}, 
      "inputs": [[1718, 1, 0]]
    }, 
    {
      "op": "_mul", 
      "name": "_mul169", 
      "inputs": [[1722, 0, 0], [1723, 0, 0]]
    }, 
    {
      "op": "elemwise_add", 
      "name": "_plus113", 
      "inputs": [[1721, 0, 0], [1724, 0, 0]]
    }, 
    {
      "op": "Activation", 
      "name": "activation284", 
      "attr": {"act_type": "tanh"}, 
      "inputs": [[1725, 0, 0]]
    }, 
    {
      "op": "_mul", 
      "name": "_mul170", 
      "inputs": [[1719, 0, 0], [1726, 0, 0]]
    }, 
    {
      "op": "FullyConnected", 
      "name": "t28_l0_i2h", 
      "attr": {"num_hidden": "512"}, 
      "inputs": [[1727, 0, 0], [62, 0, 0], [63, 0, 0]]
    }, 
    {
      "op": "FullyConnected", 
      "name": "t28_l0_h2h", 
      "attr": {"num_hidden": "512"}, 
      "inputs": [[1712, 0, 0], [66, 0, 0], [67, 0, 0]]
    }, 
    {
      "op": "elemwise_add", 
      "name": "_plus114", 
      "inputs": [[1728, 0, 0], [1729, 0, 0]]
    }, 
    {
      "op": "SliceChannel", 
      "name": "t28_l0_slice", 
      "attr": {"num_outputs": "4"}, 
      "inputs": [[1730, 0, 0]]
    }, 
    {
      "op": "Activation", 
      "name": "activation288", 
      "attr": {"act_type": "sigmoid"}, 
      "inputs": [[1731, 3, 0]]
    }, 
    {
      "op": "Activation", 
      "name": "activation287", 
      "attr": {"act_type": "sigmoid"}, 
      "inputs": [[1731, 2, 0]]
    }, 
    {
      "op": "_mul", 
      "name": "_mul171", 
      "inputs": [[1733, 0, 0], [1710, 0, 0]]
    }, 
    {
      "op": "Activation", 
      "name": "activation285", 
      "attr": {"act_type": "sigmoid"}, 
      "inputs": [[1731, 0, 0]]
    }, 
    {
      "op": "Activation", 
      "name": "activation286", 
      "attr": {"act_type": "tanh"}, 
      "inputs": [[1731, 1, 0]]
    }, 
    {
      "op": "_mul", 
      "name": "_mul172", 
      "inputs": [[1735, 0, 0], [1736, 0, 0]]
    }, 
    {
      "op": "elemwise_add", 
      "name": "_plus115", 
      "inputs": [[1734, 0, 0], [1737, 0, 0]]
    }, 
    {
      "op": "Activation", 
      "name": "activation289", 
      "attr": {"act_type": "tanh"}, 
      "inputs": [[1738, 0, 0]]
    }, 
    {
      "op": "_mul", 
      "name": "_mul173", 
      "inputs": [[1732, 0, 0], [1739, 0, 0]]
    }, 
    {
      "op": "Concat", 
      "name": "concat28", 
      "attr": {
        "dim": "1", 
        "num_args": "2"
      }, 
      "inputs": [[1740, 0, 0], [620, 0, 0]]
    }, 
    {
      "op": "Flatten", 
      "name": "flatten29", 
      "inputs": [[41, 29, 0]]
    }, 
    {
      "op": "FullyConnected", 
      "name": "t29_l0_i2h", 
      "attr": {"num_hidden": "512"}, 
      "inputs": [[1742, 0, 0], [43, 0, 0], [44, 0, 0]]
    }, 
    {
      "op": "FullyConnected", 
      "name": "t29_l0_h2h", 
      "attr": {"num_hidden": "512"}, 
      "inputs": [[1727, 0, 0], [47, 0, 0], [48, 0, 0]]
    }, 
    {
      "op": "elemwise_add", 
      "name": "_plus116", 
      "inputs": [[1743, 0, 0], [1744, 0, 0]]
    }, 
    {
      "op": "SliceChannel", 
      "name": "t29_l0_slice", 
      "attr": {"num_outputs": "4"}, 
      "inputs": [[1745, 0, 0]]
    }, 
    {
      "op": "Activation", 
      "name": "activation293", 
      "attr": {"act_type": "sigmoid"}, 
      "inputs": [[1746, 3, 0]]
    }, 
    {
      "op": "Activation", 
      "name": "activation292", 
      "attr": {"act_type": "sigmoid"}, 
      "inputs": [[1746, 2, 0]]
    }, 
    {
      "op": "_mul", 
      "name": "_mul174", 
      "inputs": [[1748, 0, 0], [1725, 0, 0]]
    }, 
    {
      "op": "Activation", 
      "name": "activation290", 
      "attr": {"act_type": "sigmoid"}, 
      "inputs": [[1746, 0, 0]]
    }, 
    {
      "op": "Activation", 
      "name": "activation291", 
      "attr": {"act_type": "tanh"}, 
      "inputs": [[1746, 1, 0]]
    }, 
    {
      "op": "_mul", 
      "name": "_mul175", 
      "inputs": [[1750, 0, 0], [1751, 0, 0]]
    }, 
    {
      "op": "elemwise_add", 
      "name": "_plus117", 
      "inputs": [[1749, 0, 0], [1752, 0, 0]]
    }, 
    {
      "op": "Activation", 
      "name": "activation294", 
      "attr": {"act_type": "tanh"}, 
      "inputs": [[1753, 0, 0]]
    }, 
    {
      "op": "_mul", 
      "name": "_mul176", 
      "inputs": [[1747, 0, 0], [1754, 0, 0]]
    }, 
    {
      "op": "FullyConnected", 
      "name": "t29_l0_i2h", 
      "attr": {"num_hidden": "512"}, 
      "inputs": [[1755, 0, 0], [62, 0, 0], [63, 0, 0]]
    }, 
    {
      "op": "FullyConnected", 
      "name": "t29_l0_h2h", 
      "attr": {"num_hidden": "512"}, 
      "inputs": [[1740, 0, 0], [66, 0, 0], [67, 0, 0]]
    }, 
    {
      "op": "elemwise_add", 
      "name": "_plus118", 
      "inputs": [[1756, 0, 0], [1757, 0, 0]]
    }, 
    {
      "op": "SliceChannel", 
      "name": "t29_l0_slice", 
      "attr": {"num_outputs": "4"}, 
      "inputs": [[1758, 0, 0]]
    }, 
    {
      "op": "Activation", 
      "name": "activation298", 
      "attr": {"act_type": "sigmoid"}, 
      "inputs": [[1759, 3, 0]]
    }, 
    {
      "op": "Activation", 
      "name": "activation297", 
      "attr": {"act_type": "sigmoid"}, 
      "inputs": [[1759, 2, 0]]
    }, 
    {
      "op": "_mul", 
      "name": "_mul177", 
      "inputs": [[1761, 0, 0], [1738, 0, 0]]
    }, 
    {
      "op": "Activation", 
      "name": "activation295", 
      "attr": {"act_type": "sigmoid"}, 
      "inputs": [[1759, 0, 0]]
    }, 
    {
      "op": "Activation", 
      "name": "activation296", 
      "attr": {"act_type": "tanh"}, 
      "inputs": [[1759, 1, 0]]
    }, 
    {
      "op": "_mul", 
      "name": "_mul178", 
      "inputs": [[1763, 0, 0], [1764, 0, 0]]
    }, 
    {
      "op": "elemwise_add", 
      "name": "_plus119", 
      "inputs": [[1762, 0, 0], [1765, 0, 0]]
    }, 
    {
      "op": "Activation", 
      "name": "activation299", 
      "attr": {"act_type": "tanh"}, 
      "inputs": [[1766, 0, 0]]
    }, 
    {
      "op": "_mul", 
      "name": "_mul179", 
      "inputs": [[1760, 0, 0], [1767, 0, 0]]
    }, 
    {
      "op": "Concat", 
      "name": "concat29", 
      "attr": {
        "dim": "1", 
        "num_args": "2"
      }, 
      "inputs": [[1768, 0, 0], [608, 0, 0]]
    }, 
    {
      "op": "Flatten", 
      "name": "flatten30", 
      "inputs": [[41, 30, 0]]
    }, 
    {
      "op": "FullyConnected", 
      "name": "t30_l0_i2h", 
      "attr": {"num_hidden": "512"}, 
      "inputs": [[1770, 0, 0], [43, 0, 0], [44, 0, 0]]
    }, 
    {
      "op": "FullyConnected", 
      "name": "t30_l0_h2h", 
      "attr": {"num_hidden": "512"}, 
      "inputs": [[1755, 0, 0], [47, 0, 0], [48, 0, 0]]
    }, 
    {
      "op": "elemwise_add", 
      "name": "_plus120", 
      "inputs": [[1771, 0, 0], [1772, 0, 0]]
    }, 
    {
      "op": "SliceChannel", 
      "name": "t30_l0_slice", 
      "attr": {"num_outputs": "4"}, 
      "inputs": [[1773, 0, 0]]
    }, 
    {
      "op": "Activation", 
      "name": "activation303", 
      "attr": {"act_type": "sigmoid"}, 
      "inputs": [[1774, 3, 0]]
    }, 
    {
      "op": "Activation", 
      "name": "activation302", 
      "attr": {"act_type": "sigmoid"}, 
      "inputs": [[1774, 2, 0]]
    }, 
    {
      "op": "_mul", 
      "name": "_mul180", 
      "inputs": [[1776, 0, 0], [1753, 0, 0]]
    }, 
    {
      "op": "Activation", 
      "name": "activation300", 
      "attr": {"act_type": "sigmoid"}, 
      "inputs": [[1774, 0, 0]]
    }, 
    {
      "op": "Activation", 
      "name": "activation301", 
      "attr": {"act_type": "tanh"}, 
      "inputs": [[1774, 1, 0]]
    }, 
    {
      "op": "_mul", 
      "name": "_mul181", 
      "inputs": [[1778, 0, 0], [1779, 0, 0]]
    }, 
    {
      "op": "elemwise_add", 
      "name": "_plus121", 
      "inputs": [[1777, 0, 0], [1780, 0, 0]]
    }, 
    {
      "op": "Activation", 
      "name": "activation304", 
      "attr": {"act_type": "tanh"}, 
      "inputs": [[1781, 0, 0]]
    }, 
    {
      "op": "_mul", 
      "name": "_mul182", 
      "inputs": [[1775, 0, 0], [1782, 0, 0]]
    }, 
    {
      "op": "FullyConnected", 
      "name": "t30_l0_i2h", 
      "attr": {"num_hidden": "512"}, 
      "inputs": [[1783, 0, 0], [62, 0, 0], [63, 0, 0]]
    }, 
    {
      "op": "FullyConnected", 
      "name": "t30_l0_h2h", 
      "attr": {"num_hidden": "512"}, 
      "inputs": [[1768, 0, 0], [66, 0, 0], [67, 0, 0]]
    }, 
    {
      "op": "elemwise_add", 
      "name": "_plus122", 
      "inputs": [[1784, 0, 0], [1785, 0, 0]]
    }, 
    {
      "op": "SliceChannel", 
      "name": "t30_l0_slice", 
      "attr": {"num_outputs": "4"}, 
      "inputs": [[1786, 0, 0]]
    }, 
    {
      "op": "Activation", 
      "name": "activation308", 
      "attr": {"act_type": "sigmoid"}, 
      "inputs": [[1787, 3, 0]]
    }, 
    {
      "op": "Activation", 
      "name": "activation307", 
      "attr": {"act_type": "sigmoid"}, 
      "inputs": [[1787, 2, 0]]
    }, 
    {
      "op": "_mul", 
      "name": "_mul183", 
      "inputs": [[1789, 0, 0], [1766, 0, 0]]
    }, 
    {
      "op": "Activation", 
      "name": "activation305", 
      "attr": {"act_type": "sigmoid"}, 
      "inputs": [[1787, 0, 0]]
    }, 
    {
      "op": "Activation", 
      "name": "activation306", 
      "attr": {"act_type": "tanh"}, 
      "inputs": [[1787, 1, 0]]
    }, 
    {
      "op": "_mul", 
      "name": "_mul184", 
      "inputs": [[1791, 0, 0], [1792, 0, 0]]
    }, 
    {
      "op": "elemwise_add", 
      "name": "_plus123", 
      "inputs": [[1790, 0, 0], [1793, 0, 0]]
    }, 
    {
      "op": "Activation", 
      "name": "activation309", 
      "attr": {"act_type": "tanh"}, 
      "inputs": [[1794, 0, 0]]
    }, 
    {
      "op": "_mul", 
      "name": "_mul185", 
      "inputs": [[1788, 0, 0], [1795, 0, 0]]
    }, 
    {
      "op": "Concat", 
      "name": "concat30", 
      "attr": {
        "dim": "1", 
        "num_args": "2"
      }, 
      "inputs": [[1796, 0, 0], [596, 0, 0]]
    }, 
    {
      "op": "Flatten", 
      "name": "flatten31", 
      "inputs": [[41, 31, 0]]
    }, 
    {
      "op": "FullyConnected", 
      "name": "t31_l0_i2h", 
      "attr": {"num_hidden": "512"}, 
      "inputs": [[1798, 0, 0], [43, 0, 0], [44, 0, 0]]
    }, 
    {
      "op": "FullyConnected", 
      "name": "t31_l0_h2h", 
      "attr": {"num_hidden": "512"}, 
      "inputs": [[1783, 0, 0], [47, 0, 0], [48, 0, 0]]
    }, 
    {
      "op": "elemwise_add", 
      "name": "_plus124", 
      "inputs": [[1799, 0, 0], [1800, 0, 0]]
    }, 
    {
      "op": "SliceChannel", 
      "name": "t31_l0_slice", 
      "attr": {"num_outputs": "4"}, 
      "inputs": [[1801, 0, 0]]
    }, 
    {
      "op": "Activation", 
      "name": "activation313", 
      "attr": {"act_type": "sigmoid"}, 
      "inputs": [[1802, 3, 0]]
    }, 
    {
      "op": "Activation", 
      "name": "activation312", 
      "attr": {"act_type": "sigmoid"}, 
      "inputs": [[1802, 2, 0]]
    }, 
    {
      "op": "_mul", 
      "name": "_mul186", 
      "inputs": [[1804, 0, 0], [1781, 0, 0]]
    }, 
    {
      "op": "Activation", 
      "name": "activation310", 
      "attr": {"act_type": "sigmoid"}, 
      "inputs": [[1802, 0, 0]]
    }, 
    {
      "op": "Activation", 
      "name": "activation311", 
      "attr": {"act_type": "tanh"}, 
      "inputs": [[1802, 1, 0]]
    }, 
    {
      "op": "_mul", 
      "name": "_mul187", 
      "inputs": [[1806, 0, 0], [1807, 0, 0]]
    }, 
    {
      "op": "elemwise_add", 
      "name": "_plus125", 
      "inputs": [[1805, 0, 0], [1808, 0, 0]]
    }, 
    {
      "op": "Activation", 
      "name": "activation314", 
      "attr": {"act_type": "tanh"}, 
      "inputs": [[1809, 0, 0]]
    }, 
    {
      "op": "_mul", 
      "name": "_mul188", 
      "inputs": [[1803, 0, 0], [1810, 0, 0]]
    }, 
    {
      "op": "FullyConnected", 
      "name": "t31_l0_i2h", 
      "attr": {"num_hidden": "512"}, 
      "inputs": [[1811, 0, 0], [62, 0, 0], [63, 0, 0]]
    }, 
    {
      "op": "FullyConnected", 
      "name": "t31_l0_h2h", 
      "attr": {"num_hidden": "512"}, 
      "inputs": [[1796, 0, 0], [66, 0, 0], [67, 0, 0]]
    }, 
    {
      "op": "elemwise_add", 
      "name": "_plus126", 
      "inputs": [[1812, 0, 0], [1813, 0, 0]]
    }, 
    {
      "op": "SliceChannel", 
      "name": "t31_l0_slice", 
      "attr": {"num_outputs": "4"}, 
      "inputs": [[1814, 0, 0]]
    }, 
    {
      "op": "Activation", 
      "name": "activation318", 
      "attr": {"act_type": "sigmoid"}, 
      "inputs": [[1815, 3, 0]]
    }, 
    {
      "op": "Activation", 
      "name": "activation317", 
      "attr": {"act_type": "sigmoid"}, 
      "inputs": [[1815, 2, 0]]
    }, 
    {
      "op": "_mul", 
      "name": "_mul189", 
      "inputs": [[1817, 0, 0], [1794, 0, 0]]
    }, 
    {
      "op": "Activation", 
      "name": "activation315", 
      "attr": {"act_type": "sigmoid"}, 
      "inputs": [[1815, 0, 0]]
    }, 
    {
      "op": "Activation", 
      "name": "activation316", 
      "attr": {"act_type": "tanh"}, 
      "inputs": [[1815, 1, 0]]
    }, 
    {
      "op": "_mul", 
      "name": "_mul190", 
      "inputs": [[1819, 0, 0], [1820, 0, 0]]
    }, 
    {
      "op": "elemwise_add", 
      "name": "_plus127", 
      "inputs": [[1818, 0, 0], [1821, 0, 0]]
    }, 
    {
      "op": "Activation", 
      "name": "activation319", 
      "attr": {"act_type": "tanh"}, 
      "inputs": [[1822, 0, 0]]
    }, 
    {
      "op": "_mul", 
      "name": "_mul191", 
      "inputs": [[1816, 0, 0], [1823, 0, 0]]
    }, 
    {
      "op": "Concat", 
      "name": "concat31", 
      "attr": {
        "dim": "1", 
        "num_args": "2"
      }, 
      "inputs": [[1824, 0, 0], [584, 0, 0]]
    }, 
    {
      "op": "Concat", 
      "name": "concat32", 
      "attr": {
        "dim": "0", 
        "num_args": "32"
      }, 
      "inputs": [
        [957, 0, 0], 
        [985, 0, 0], 
        [1013, 0, 0], 
        [1041, 0, 0], 
        [1069, 0, 0], 
        [1097, 0, 0], 
        [1125, 0, 0], 
        [1153, 0, 0], 
        [1181, 0, 0], 
        [1209, 0, 0], 
        [1237, 0, 0], 
        [1265, 0, 0], 
        [1293, 0, 0], 
        [1321, 0, 0], 
        [1349, 0, 0], 
        [1377, 0, 0], 
        [1405, 0, 0], 
        [1433, 0, 0], 
        [1461, 0, 0], 
        [1489, 0, 0], 
        [1517, 0, 0], 
        [1545, 0, 0], 
        [1573, 0, 0], 
        [1601, 0, 0], 
        [1629, 0, 0], 
        [1657, 0, 0], 
        [1685, 0, 0], 
        [1713, 0, 0], 
        [1741, 0, 0], 
        [1769, 0, 0], 
        [1797, 0, 0], 
        [1825, 0, 0]
      ]
    }, 
    {
      "op": "null", 
      "name": "fullyconnected0_weight", 
      "attr": {"num_hidden": "11"}, 
      "inputs": []
    }, 
    {
      "op": "null", 
      "name": "fullyconnected0_bias", 
      "attr": {"num_hidden": "11"}, 
      "inputs": []
    }, 
    {
      "op": "FullyConnected", 
      "name": "fullyconnected0", 
      "attr": {"num_hidden": "11"}, 
      "inputs": [[1826, 0, 0], [1827, 0, 0], [1828, 0, 0]]
    }, 
    {
      "op": "null", 
      "name": "label", 
      "inputs": []
    }, 
    {
      "op": "Reshape", 
      "name": "reshape0", 
      "attr": {"shape": "(-1,)"}, 
      "inputs": [[1830, 0, 0]]
    }, 
    {
      "op": "Cast", 
      "name": "cast0", 
      "attr": {"dtype": "int32"}, 
      "inputs": [[1831, 0, 0]]
    }, 
    {
      "op": "WarpCTC", 
      "name": "warpctc0", 
      "attr": {
        "input_length": "32", 
        "label_length": "24"
      }, 
      "inputs": [[1829, 0, 0], [1832, 0, 0]]
    }
  ], 
  "arg_nodes": [
    0, 
    1, 
    2, 
    8, 
    9, 
    13, 
    14, 
    16, 
    17, 
    18, 
    19, 
    22, 
    23, 
    27, 
    28, 
    30, 
    31, 
    32, 
    33, 
    36, 
    37, 
    43, 
    44, 
    46, 
    47, 
    48, 
    54, 
    62, 
    63, 
    65, 
    66, 
    67, 
    73, 
    82, 
    83, 
    147, 
    148, 
    149, 
    155, 
    535, 
    536, 
    569, 
    570, 
    571, 
    577, 
    1827, 
    1828, 
    1830
  ], 
  "node_row_ptr": [
    0, 
    1, 
    2, 
    3, 
    4, 
    5, 
    6, 
    7, 
    8, 
    9, 
    10, 
    11, 
    12, 
    13, 
    14, 
    15, 
    16, 
    17, 
    18, 
    19, 
    20, 
    23, 
    24, 
    25, 
    26, 
    27, 
    28, 
    29, 
    30, 
    31, 
    32, 
    33, 
    34, 
    35, 
    36, 
    39, 
    40, 
    41, 
    42, 
    43, 
    44, 
    46, 
    78, 
    79, 
    80, 
    81, 
    82, 
    83, 
    84, 
    85, 
    86, 
    87, 
    91, 
    92, 
    93, 
    94, 
    95, 
    96, 
    97, 
    98, 
    99, 
    100, 
    101, 
    102, 
    103, 
    104, 
    105, 
    106, 
    107, 
    108, 
    109, 
    113, 
    114, 
    115, 
    116, 
    117, 
    118, 
    119, 
    120, 
    121, 
    122, 
    123, 
    124, 
    125, 
    126, 
    127, 
    128, 
    129, 
    130, 
    131, 
    132, 
    133, 
    134, 
    135, 
    136, 
    137, 
    138, 
    139, 
    140, 
    141, 
    142, 
    143, 
    144, 
    145, 
    146, 
    147, 
    148, 
    149, 
    150, 
    151, 
    152, 
    153, 
    154, 
    155, 
    156, 
    157, 
    158, 
    159, 
    160, 
    161, 
    162, 
    163, 
    164, 
    165, 
    166, 
    167, 
    168, 
    169, 
    170, 
    171, 
    172, 
    173, 
    174, 
    175, 
    176, 
    177, 
    178, 
    179, 
    180, 
    181, 
    182, 
    183, 
    184, 
    185, 
    186, 
    187, 
    188, 
    189, 
    190, 
    191, 
    192, 
    193, 
    194, 
    198, 
    199, 
    200, 
    201, 
    202, 
    203, 
    204, 
    205, 
    206, 
    207, 
    208, 
    209, 
    210, 
    214, 
    215, 
    216, 
    217, 
    218, 
    219, 
    220, 
    221, 
    222, 
    223, 
    224, 
    225, 
    229, 
    230, 
    231, 
    232, 
    233, 
    234, 
    235, 
    236, 
    237, 
    238, 
    239, 
    240, 
    244, 
    245, 
    246, 
    247, 
    248, 
    249, 
    250, 
    251, 
    252, 
    253, 
    254, 
    255, 
    259, 
    260, 
    261, 
    262, 
    263, 
    264, 
    265, 
    266, 
    267, 
    268, 
    269, 
    270, 
    274, 
    275, 
    276, 
    277, 
    278, 
    279, 
    280, 
    281, 
    282, 
    283, 
    284, 
    285, 
    289, 
    290, 
    291, 
    292, 
    293, 
    294, 
    295, 
    296, 
    297, 
    298, 
    299, 
    300, 
    304, 
    305, 
    306, 
    307, 
    308, 
    309, 
    310, 
    311, 
    312, 
    313, 
    314, 
    315, 
    319, 
    320, 
    321, 
    322, 
    323, 
    324, 
    325, 
    326, 
    327, 
    328, 
    329, 
    330, 
    334, 
    335, 
    336, 
    337, 
    338, 
    339, 
    340, 
    341, 
    342, 
    343, 
    344, 
    345, 
    349, 
    350, 
    351, 
    352, 
    353, 
    354, 
    355, 
    356, 
    357, 
    358, 
    359, 
    360, 
    364, 
    365, 
    366, 
    367, 
    368, 
    369, 
    370, 
    371, 
    372, 
    373, 
    374, 
    375, 
    379, 
    380, 
    381, 
    382, 
    383, 
    384, 
    385, 
    386, 
    387, 
    388, 
    389, 
    390, 
    394, 
    395, 
    396, 
    397, 
    398, 
    399, 
    400, 
    401, 
    402, 
    403, 
    404, 
    405, 
    409, 
    410, 
    411, 
    412, 
    413, 
    414, 
    415, 
    416, 
    417, 
    418, 
    419, 
    420, 
    424, 
    425, 
    426, 
    427, 
    428, 
    429, 
    430, 
    431, 
    432, 
    433, 
    434, 
    435, 
    439, 
    440, 
    441, 
    442, 
    443, 
    444, 
    445, 
    446, 
    447, 
    448, 
    449, 
    450, 
    454, 
    455, 
    456, 
    457, 
    458, 
    459, 
    460, 
    461, 
    462, 
    463, 
    464, 
    465, 
    469, 
    470, 
    471, 
    472, 
    473, 
    474, 
    475, 
    476, 
    477, 
    478, 
    479, 
    480, 
    484, 
    485, 
    486, 
    487, 
    488, 
    489, 
    490, 
    491, 
    492, 
    493, 
    494, 
    495, 
    499, 
    500, 
    501, 
    502, 
    503, 
    504, 
    505, 
    506, 
    507, 
    508, 
    509, 
    510, 
    514, 
    515, 
    516, 
    517, 
    518, 
    519, 
    520, 
    521, 
    522, 
    523, 
    524, 
    525, 
    529, 
    530, 
    531, 
    532, 
    533, 
    534, 
    535, 
    536, 
    537, 
    538, 
    539, 
    540, 
    544, 
    545, 
    546, 
    547, 
    548, 
    549, 
    550, 
    551, 
    552, 
    553, 
    554, 
    555, 
    559, 
    560, 
    561, 
    562, 
    563, 
    564, 
    565, 
    566, 
    567, 
    568, 
    569, 
    570, 
    574, 
    575, 
    576, 
    577, 
    578, 
    579, 
    580, 
    581, 
    582, 
    583, 
    584, 
    585, 
    589, 
    590, 
    591, 
    592, 
    593, 
    594, 
    595, 
    596, 
    597, 
    598, 
    599, 
    600, 
    604, 
    605, 
    606, 
    607, 
    608, 
    609, 
    610, 
    611, 
    612, 
    613, 
    614, 
    615, 
    619, 
    620, 
    621, 
    622, 
    623, 
    624, 
    625, 
    626, 
    627, 
    628, 
    629, 
    630, 
    634, 
    635, 
    636, 
    637, 
    638, 
    639, 
    640, 
    641, 
    642, 
    643, 
    644, 
    645, 
    649, 
    650, 
    651, 
    652, 
    653, 
    654, 
    655, 
    656, 
    657, 
    658, 
    659, 
    660, 
    664, 
    665, 
    666, 
    667, 
    668, 
    669, 
    670, 
    671, 
    672, 
    673, 
    674, 
    675, 
    676, 
    677, 
    678, 
    679, 
    680, 
    681, 
    682, 
    683, 
    684, 
    685, 
    686, 
    687, 
    688, 
    689, 
    690, 
    691, 
    692, 
    693, 
    694, 
    695, 
    696, 
    697, 
    698, 
    699, 
    700, 
    701, 
    702, 
    703, 
    704, 
    705, 
    706, 
    707, 
    708, 
    709, 
    710, 
    711, 
    712, 
    716, 
    717, 
    718, 
    719, 
    720, 
    721, 
    722, 
    723, 
    724, 
    725, 
    726, 
    727, 
    728, 
    732, 
    733, 
    734, 
    735, 
    736, 
    737, 
    738, 
    739, 
    740, 
    741, 
    742, 
    743, 
    747, 
    748, 
    749, 
    750, 
    751, 
    752, 
    753, 
    754, 
    755, 
    756, 
    757, 
    758, 
    762, 
    763, 
    764, 
    765, 
    766, 
    767, 
    768, 
    769, 
    770, 
    771, 
    772, 
    773, 
    777, 
    778, 
    779, 
    780, 
    781, 
    782, 
    783, 
    784, 
    785, 
    786, 
    787, 
    788, 
    792, 
    793, 
    794, 
    795, 
    796, 
    797, 
    798, 
    799, 
    800, 
    801, 
    802, 
    803, 
    807, 
    808, 
    809, 
    810, 
    811, 
    812, 
    813, 
    814, 
    815, 
    816, 
    817, 
    818, 
    822, 
    823, 
    824, 
    825, 
    826, 
    827, 
    828, 
    829, 
    830, 
    831, 
    832, 
    833, 
    837, 
    838, 
    839, 
    840, 
    841, 
    842, 
    843, 
    844, 
    845, 
    846, 
    847, 
    848, 
    852, 
    853, 
    854, 
    855, 
    856, 
    857, 
    858, 
    859, 
    860, 
    861, 
    862, 
    863, 
    867, 
    868, 
    869, 
    870, 
    871, 
    872, 
    873, 
    874, 
    875, 
    876, 
    877, 
    878, 
    882, 
    883, 
    884, 
    885, 
    886, 
    887, 
    888, 
    889, 
    890, 
    891, 
    892, 
    893, 
    897, 
    898, 
    899, 
    900, 
    901, 
    902, 
    903, 
    904, 
    905, 
    906, 
    907, 
    908, 
    912, 
    913, 
    914, 
    915, 
    916, 
    917, 
    918, 
    919, 
    920, 
    921, 
    922, 
    923, 
    927, 
    928, 
    929, 
    930, 
    931, 
    932, 
    933, 
    934, 
    935, 
    936, 
    937, 
    938, 
    942, 
    943, 
    944, 
    945, 
    946, 
    947, 
    948, 
    949, 
    950, 
    951, 
    952, 
    953, 
    957, 
    958, 
    959, 
    960, 
    961, 
    962, 
    963, 
    964, 
    965, 
    966, 
    967, 
    968, 
    972, 
    973, 
    974, 
    975, 
    976, 
    977, 
    978, 
    979, 
    980, 
    981, 
    982, 
    983, 
    987, 
    988, 
    989, 
    990, 
    991, 
    992, 
    993, 
    994, 
    995, 
    996, 
    997, 
    998, 
    1002, 
    1003, 
    1004, 
    1005, 
    1006, 
    1007, 
    1008, 
    1009, 
    1010, 
    1011, 
    1012, 
    1013, 
    1017, 
    1018, 
    1019, 
    1020, 
    1021, 
    1022, 
    1023, 
    1024, 
    1025, 
    1026, 
    1027, 
    1028, 
    1032, 
    1033, 
    1034, 
    1035, 
    1036, 
    1037, 
    1038, 
    1039, 
    1040, 
    1041, 
    1042, 
    1043, 
    1047, 
    1048, 
    1049, 
    1050, 
    1051, 
    1052, 
    1053, 
    1054, 
    1055, 
    1056, 
    1057, 
    1058, 
    1062, 
    1063, 
    1064, 
    1065, 
    1066, 
    1067, 
    1068, 
    1069, 
    1070, 
    1071, 
    1072, 
    1073, 
    1077, 
    1078, 
    1079, 
    1080, 
    1081, 
    1082, 
    1083, 
    1084, 
    1085, 
    1086, 
    1087, 
    1088, 
    1092, 
    1093, 
    1094, 
    1095, 
    1096, 
    1097, 
    1098, 
    1099, 
    1100, 
    1101, 
    1102, 
    1103, 
    1107, 
    1108, 
    1109, 
    1110, 
    1111, 
    1112, 
    1113, 
    1114, 
    1115, 
    1116, 
    1117, 
    1118, 
    1122, 
    1123, 
    1124, 
    1125, 
    1126, 
    1127, 
    1128, 
    1129, 
    1130, 
    1131, 
    1132, 
    1133, 
    1137, 
    1138, 
    1139, 
    1140, 
    1141, 
    1142, 
    1143, 
    1144, 
    1145, 
    1146, 
    1147, 
    1148, 
    1152, 
    1153, 
    1154, 
    1155, 
    1156, 
    1157, 
    1158, 
    1159, 
    1160, 
    1161, 
    1162, 
    1163, 
    1167, 
    1168, 
    1169, 
    1170, 
    1171, 
    1172, 
    1173, 
    1174, 
    1175, 
    1176, 
    1177, 
    1178, 
    1182, 
    1183, 
    1184, 
    1185, 
    1186, 
    1187, 
    1188, 
    1189, 
    1190, 
    1191, 
    1192, 
    1193, 
    1194, 
    1195, 
    1196, 
    1200, 
    1201, 
    1202, 
    1203, 
    1204, 
    1205, 
    1206, 
    1207, 
    1208, 
    1209, 
    1210, 
    1211, 
    1212, 
    1216, 
    1217, 
    1218, 
    1219, 
    1220, 
    1221, 
    1222, 
    1223, 
    1224, 
    1225, 
    1226, 
    1227, 
    1228, 
    1229, 
    1230, 
    1234, 
    1235, 
    1236, 
    1237, 
    1238, 
    1239, 
    1240, 
    1241, 
    1242, 
    1243, 
    1244, 
    1245, 
    1246, 
    1250, 
    1251, 
    1252, 
    1253, 
    1254, 
    1255, 
    1256, 
    1257, 
    1258, 
    1259, 
    1260, 
    1261, 
    1262, 
    1263, 
    1264, 
    1268, 
    1269, 
    1270, 
    1271, 
    1272, 
    1273, 
    1274, 
    1275, 
    1276, 
    1277, 
    1278, 
    1279, 
    1280, 
    1284, 
    1285, 
    1286, 
    1287, 
    1288, 
    1289, 
    1290, 
    1291, 
    1292, 
    1293, 
    1294, 
    1295, 
    1296, 
    1297, 
    1298, 
    1302, 
    1303, 
    1304, 
    1305, 
    1306, 
    1307, 
    1308, 
    1309, 
    1310, 
    1311, 
    1312, 
    1313, 
    1314, 
    1318, 
    1319, 
    1320, 
    1321, 
    1322, 
    1323, 
    1324, 
    1325, 
    1326, 
    1327, 
    1328, 
    1329, 
    1330, 
    1331, 
    1332, 
    1336, 
    1337, 
    1338, 
    1339, 
    1340, 
    1341, 
    1342, 
    1343, 
    1344, 
    1345, 
    1346, 
    1347, 
    1348, 
    1352, 
    1353, 
    1354, 
    1355, 
    1356, 
    1357, 
    1358, 
    1359, 
    1360, 
    1361, 
    1362, 
    1363, 
    1364, 
    1365, 
    1366, 
    1370, 
    1371, 
    1372, 
    1373, 
    1374, 
    1375, 
    1376, 
    1377, 
    1378, 
    1379, 
    1380, 
    1381, 
    1382, 
    1386, 
    1387, 
    1388, 
    1389, 
    1390, 
    1391, 
    1392, 
    1393, 
    1394, 
    1395, 
    1396, 
    1397, 
    1398, 
    1399, 
    1400, 
    1404, 
    1405, 
    1406, 
    1407, 
    1408, 
    1409, 
    1410, 
    1411, 
    1412, 
    1413, 
    1414, 
    1415, 
    1416, 
    1420, 
    1421, 
    1422, 
    1423, 
    1424, 
    1425, 
    1426, 
    1427, 
    1428, 
    1429, 
    1430, 
    1431, 
    1432, 
    1433, 
    1434, 
    1438, 
    1439, 
    1440, 
    1441, 
    1442, 
    1443, 
    1444, 
    1445, 
    1446, 
    1447, 
    1448, 
    1449, 
    1450, 
    1454, 
    1455, 
    1456, 
    1457, 
    1458, 
    1459, 
    1460, 
    1461, 
    1462, 
    1463, 
    1464, 
    1465, 
    1466, 
    1467, 
    1468, 
    1472, 
    1473, 
    1474, 
    1475, 
    1476, 
    1477, 
    1478, 
    1479, 
    1480, 
    1481, 
    1482, 
    1483, 
    1484, 
    1488, 
    1489, 
    1490, 
    1491, 
    1492, 
    1493, 
    1494, 
    1495, 
    1496, 
    1497, 
    1498, 
    1499, 
    1500, 
    1501, 
    1502, 
    1506, 
    1507, 
    1508, 
    1509, 
    1510, 
    1511, 
    1512, 
    1513, 
    1514, 
    1515, 
    1516, 
    1517, 
    1518, 
    1522, 
    1523, 
    1524, 
    1525, 
    1526, 
    1527, 
    1528, 
    1529, 
    1530, 
    1531, 
    1532, 
    1533, 
    1534, 
    1535, 
    1536, 
    1540, 
    1541, 
    1542, 
    1543, 
    1544, 
    1545, 
    1546, 
    1547, 
    1548, 
    1549, 
    1550, 
    1551, 
    1552, 
    1556, 
    1557, 
    1558, 
    1559, 
    1560, 
    1561, 
    1562, 
    1563, 
    1564, 
    1565, 
    1566, 
    1567, 
    1568, 
    1569, 
    1570, 
    1574, 
    1575, 
    1576, 
    1577, 
    1578, 
    1579, 
    1580, 
    1581, 
    1582, 
    1583, 
    1584, 
    1585, 
    1586, 
    1590, 
    1591, 
    1592, 
    1593, 
    1594, 
    1595, 
    1596, 
    1597, 
    1598, 
    1599, 
    1600, 
    1601, 
    1602, 
    1603, 
    1604, 
    1608, 
    1609, 
    1610, 
    1611, 
    1612, 
    1613, 
    1614, 
    1615, 
    1616, 
    1617, 
    1618, 
    1619, 
    1620, 
    1624, 
    1625, 
    1626, 
    1627, 
    1628, 
    1629, 
    1630, 
    1631, 
    1632, 
    1633, 
    1634, 
    1635, 
    1636, 
    1637, 
    1638, 
    1642, 
    1643, 
    1644, 
    1645, 
    1646, 
    1647, 
    1648, 
    1649, 
    1650, 
    1651, 
    1652, 
    1653, 
    1654, 
    1658, 
    1659, 
    1660, 
    1661, 
    1662, 
    1663, 
    1664, 
    1665, 
    1666, 
    1667, 
    1668, 
    1669, 
    1670, 
    1671, 
    1672, 
    1676, 
    1677, 
    1678, 
    1679, 
    1680, 
    1681, 
    1682, 
    1683, 
    1684, 
    1685, 
    1686, 
    1687, 
    1688, 
    1692, 
    1693, 
    1694, 
    1695, 
    1696, 
    1697, 
    1698, 
    1699, 
    1700, 
    1701, 
    1702, 
    1703, 
    1704, 
    1705, 
    1706, 
    1710, 
    1711, 
    1712, 
    1713, 
    1714, 
    1715, 
    1716, 
    1717, 
    1718, 
    1719, 
    1720, 
    1721, 
    1722, 
    1726, 
    1727, 
    1728, 
    1729, 
    1730, 
    1731, 
    1732, 
    1733, 
    1734, 
    1735, 
    1736, 
    1737, 
    1738, 
    1739, 
    1740, 
    1744, 
    1745, 
    1746, 
    1747, 
    1748, 
    1749, 
    1750, 
    1751, 
    1752, 
    1753, 
    1754, 
    1755, 
    1756, 
    1760, 
    1761, 
    1762, 
    1763, 
    1764, 
    1765, 
    1766, 
    1767, 
    1768, 
    1769, 
    1770, 
    1771, 
    1772, 
    1773, 
    1774, 
    1778, 
    1779, 
    1780, 
    1781, 
    1782, 
    1783, 
    1784, 
    1785, 
    1786, 
    1787, 
    1788, 
    1789, 
    1790, 
    1794, 
    1795, 
    1796, 
    1797, 
    1798, 
    1799, 
    1800, 
    1801, 
    1802, 
    1803, 
    1804, 
    1805, 
    1806, 
    1807, 
    1808, 
    1812, 
    1813, 
    1814, 
    1815, 
    1816, 
    1817, 
    1818, 
    1819, 
    1820, 
    1821, 
    1822, 
    1823, 
    1824, 
    1828, 
    1829, 
    1830, 
    1831, 
    1832, 
    1833, 
    1834, 
    1835, 
    1836, 
    1837, 
    1838, 
    1839, 
    1840, 
    1841, 
    1842, 
    1846, 
    1847, 
    1848, 
    1849, 
    1850, 
    1851, 
    1852, 
    1853, 
    1854, 
    1855, 
    1856, 
    1857, 
    1858, 
    1862, 
    1863, 
    1864, 
    1865, 
    1866, 
    1867, 
    1868, 
    1869, 
    1870, 
    1871, 
    1872, 
    1873, 
    1874, 
    1875, 
    1876, 
    1880, 
    1881, 
    1882, 
    1883, 
    1884, 
    1885, 
    1886, 
    1887, 
    1888, 
    1889, 
    1890, 
    1891, 
    1892, 
    1896, 
    1897, 
    1898, 
    1899, 
    1900, 
    1901, 
    1902, 
    1903, 
    1904, 
    1905, 
    1906, 
    1907, 
    1908, 
    1909, 
    1910, 
    1914, 
    1915, 
    1916, 
    1917, 
    1918, 
    1919, 
    1920, 
    1921, 
    1922, 
    1923, 
    1924, 
    1925, 
    1926, 
    1930, 
    1931, 
    1932, 
    1933, 
    1934, 
    1935, 
    1936, 
    1937, 
    1938, 
    1939, 
    1940, 
    1941, 
    1942, 
    1943, 
    1944, 
    1948, 
    1949, 
    1950, 
    1951, 
    1952, 
    1953, 
    1954, 
    1955, 
    1956, 
    1957, 
    1958, 
    1959, 
    1960, 
    1964, 
    1965, 
    1966, 
    1967, 
    1968, 
    1969, 
    1970, 
    1971, 
    1972, 
    1973, 
    1974, 
    1975, 
    1976, 
    1977, 
    1978, 
    1982, 
    1983, 
    1984, 
    1985, 
    1986, 
    1987, 
    1988, 
    1989, 
    1990, 
    1991, 
    1992, 
    1993, 
    1994, 
    1998, 
    1999, 
    2000, 
    2001, 
    2002, 
    2003, 
    2004, 
    2005, 
    2006, 
    2007, 
    2008, 
    2009, 
    2010, 
    2011, 
    2012, 
    2016, 
    2017, 
    2018, 
    2019, 
    2020, 
    2021, 
    2022, 
    2023, 
    2024, 
    2025, 
    2026, 
    2027, 
    2028, 
    2032, 
    2033, 
    2034, 
    2035, 
    2036, 
    2037, 
    2038, 
    2039, 
    2040, 
    2041, 
    2042, 
    2043, 
    2044, 
    2045, 
    2046, 
    2050, 
    2051, 
    2052, 
    2053, 
    2054, 
    2055, 
    2056, 
    2057, 
    2058, 
    2059, 
    2060, 
    2061, 
    2062, 
    2066, 
    2067, 
    2068, 
    2069, 
    2070, 
    2071, 
    2072, 
    2073, 
    2074, 
    2075, 
    2076, 
    2077, 
    2078, 
    2079, 
    2080, 
    2084, 
    2085, 
    2086, 
    2087, 
    2088, 
    2089, 
    2090, 
    2091, 
    2092, 
    2093, 
    2094, 
    2095, 
    2096, 
    2100, 
    2101, 
    2102, 
    2103, 
    2104, 
    2105, 
    2106, 
    2107, 
    2108, 
    2109, 
    2110, 
    2111, 
    2112, 
    2113, 
    2114, 
    2118, 
    2119, 
    2120, 
    2121, 
    2122, 
    2123, 
    2124, 
    2125, 
    2126, 
    2127, 
    2128, 
    2129, 
    2130, 
    2134, 
    2135, 
    2136, 
    2137, 
    2138, 
    2139, 
    2140, 
    2141, 
    2142, 
    2143, 
    2144, 
    2145, 
    2146, 
    2147, 
    2148, 
    2152, 
    2153, 
    2154, 
    2155, 
    2156, 
    2157, 
    2158, 
    2159, 
    2160, 
    2161, 
    2162, 
    2163, 
    2164, 
    2168, 
    2169, 
    2170, 
    2171, 
    2172, 
    2173, 
    2174, 
    2175, 
    2176, 
    2177, 
    2178, 
    2179, 
    2180, 
    2181, 
    2182, 
    2186, 
    2187, 
    2188, 
    2189, 
    2190, 
    2191, 
    2192, 
    2193, 
    2194, 
    2195, 
    2196, 
    2197, 
    2198, 
    2202, 
    2203, 
    2204, 
    2205, 
    2206, 
    2207, 
    2208, 
    2209, 
    2210, 
    2211, 
    2212, 
    2213, 
    2214, 
    2215, 
    2216, 
    2220, 
    2221, 
    2222, 
    2223, 
    2224, 
    2225, 
    2226, 
    2227, 
    2228, 
    2229, 
    2230, 
    2231, 
    2232, 
    2236, 
    2237, 
    2238, 
    2239, 
    2240, 
    2241, 
    2242, 
    2243, 
    2244, 
    2245, 
    2246, 
    2247, 
    2248, 
    2249, 
    2250, 
    2251, 
    2252, 
    2253, 
    2254
  ], 
  "heads": [[1833, 0, 0]], 
  "attrs": {"mxnet_version": ["int", 1100]}
}